checkpointfinal.pth (torch, 42239 bytes, 10 tensors)

fc1.weight f4 [128, 4]
00000000: aa7c 28bd aa3f 933e 2ec1 dabe 1368 cbbe
00000010: 93d3 19be 5edc 543e c90c b5bc 5b2a 233f
00000020: 41f3 cbbc a9c7 9b3e e055 d7bd 9083 793d
00000030: 40cf a1be 066c aebe ca00 30be 6df5 233e
00000040: 4a1a 313e 8fcb 933e cb55 a0be 22a5 9fbe
00000050: ea28 123e f07a 3b3f 7601 bcbd 9b6b 003f
00000060: 0053 e5bd 592e 963d 9137 773e fe6c 3bbf
00000070: 6f03 f2be f538 50be 7fe2 1abe d741 193f
00000080: fffd a2be bde9 b1be 0cb0 95be 4b1d f3be
00000090: 7441 74be d951 223f 04f3 303e 61cb 653e
000000a0: f9a2 223d ee3f bcbe 3e40 9d3c 21bb 10bf
000000b0: 95b4 78be d9ae a5be dcb3 923e 96df f13e
000000c0: 7b17 4fbe 32a5 0cbe 40d6 803e 739b 223f
000000d0: 1be1 683e 093c 0c3e 07fd 563e 94fc 3abe
000000e0: 7685 a33d d44b 12bf 2c94 a3be aa0d 2fbe
000000f0: 34c5 2d3e 0fbf 013e 78b0 7dbe 8680 43bd
00000100: 80e5 883e ef9f 59bc 22c8 96bb f2be 103e
00000110: 76f1 433e db4a f73e 28a7 bdbe f6d3 96be
00000120: 1c24 043e 2b0c f93e 8921 4c3f dfec e53e
00000130: 0128 0a3e 78f8 debe 8160 e63b 9716 bbbe
00000140: 7b43 6cbe 9c50 fb3e cc99 6d3e 4b3a 00bf
00000150: 22fc 793d 3c0e 4ebe f759 a5bd aaad b8be
00000160: 55cc 1b3e 54a1 6fbe 25f5 db3d 4e05 a63e
00000170: 9434 bb3e 8242 e53d 4127 11bf e920 03bf
00000180: 54be 463e 63fd 8a3d f325 d7be a045 a9be
00000190: c96e e93e 046f af3e 80c8 2ebe faac d2be
000001a0: 77fb 85be a536 bb3d a255 b6be 460b 7dbe
000001b0: 3de3 0e3c d93c 1c3e 253a 35be 2aaf 163f
000001c0: dfce 9abe 4358 dc3e ec95 923e 98e2 adbe
000001d0: a6db aebd 5b65 59bd 818c cd3c 760d 293e
000001e0: 09c1 313e 1e5b b9bd 0b84 60be ddae eb3c
000001f0: 638d c8be c651 7fbe 61a8 e0bd e31e acbe
00000200: 6f94 b2bd bce7 1abf 05ba b0bd 2241 183e
00000210: 68f0 87be 92ad 49bd 63e3 7c3e 6fb0 05be
00000220: 1d02 b5bb 17c2 00bc 6d39 4c3d ce3e c43e
00000230: 12ce c53e 1f84 873e ef4e e13e f479 7dbd
00000240: 7430 a8be cd06 bdbe 8ec2 9e3e 88cd 75bd
00000250: f0a1 29be 4d1d 38bf bd90 05bf 4bef 0abf
00000260: 1e5a cbbd 21c3 863e 7591 1d3e 7f47 06bf
00000270: 4833 743e a72a 11bf 1c0e 90bd 5868 e0be
00000280: 29e4 10be ee42 7bbe 0f47 06bf 974f 05bf
00000290: 3e2a 5cbd 94b3 1a3d 2553 4cbe 248a 1f3e
000002a0: caa2 a5be bcb8 a3bd 6a81 c63e 80d7 debd
000002b0: 026a b33e 8002 993d 8a9f 17bf 2f4f 083e
000002c0: 9419 32bd 3d4b 3fbe 2f54 993e 649c 1cbf
000002d0: c1bc 573d 560c 013c fa36 a23e 8f09 613e
000002e0: 7b21 5b3e c58d 403e 3693 c9bd 8035 99be
000002f0: b8a2 9abe c819 e33e c71d 5f3e b286 fe3e
00000300: a506 88be 536b 80bd 1b1f b0be dc64 c3be
00000310: b7b5 77be 444e 4e3e d44c 70be 967b 4b3b
00000320: edb4 67bc 637b c63e ab67 b8be 8a56 e5be
00000330: f46d d7be c1a7 be3e e895 12be 772b 0b3f
00000340: e0d4 243e 303a 913d a6cd 31bc 38f8 6abe
00000350: 0828 733d 85cd e4bd 5eb5 abbc 849a 203e
00000360: c541 8bbe 7690 cfbe 3d19 853e f7a9 1fbf
00000370: f142 64bc b168 5c3f a310 d73d 9851 033e
00000380: 13ec 84be 0181 a13e ae92 99be a81c 64be
00000390: 9cae f3bd d146 8c3c d680 58bc 5eec 1b3f
000003a0: 633a 643d a736 c63e 75d2 313e dad4 a9be
000003b0: a87c 1c3e d760 b8be 2a79 3dbe 2f82 f23d
000003c0: 8acf 233e 7a9f dc3e a244 08be d59e 81bd
000003d0: 23f1 403e 5442 28bf d7f7 9d3e bb89 d5be
000003e0: 2a15 843b 0b52 87bd 782b 71be 0595 ccbd
000003f0: c867 bf3e c165 38bd dae5 3fbe a557 afbe
-0.041134514 0.2875951 -0.4272551 -0.3972784 -0.15022115 0.20787188 -0.022100823 0.63736504
-0.024896266 0.30425766 -0.10514426 0.060916483 -0.31603432 -0.3406679 -0.17187801 0.16011591
0.17295185 0.2886624 -0.31315455 -0.31180674 0.1427342 0.7323446 -0.09179966 0.5016419
-0.111974716 0.07333059 0.2414229 -0.73213184 -0.47268245 -0.20334227 -0.15125464 0.5986609
-0.3183441 -0.3474864 -0.29235876 -0.47483286 -0.23853093 0.6340614 0.17280203 0.22440864
0.039706204 -0.36767524 0.019195672 -0.56535536 -0.24287637 -0.3235996 0.28652847 0.47240895
-0.20223801 -0.13734892 0.2516346 0.63518447 0.22742121 0.13694777 0.2099496 -0.18260413
0.0798444 -0.57146955 -0.31948984 -0.17095056 0.16969758 0.1267054 -0.24774349 -0.04772999
0.26737595 -0.01328276 -0.0046014944 0.1413534 0.19135079 0.48299298 -0.37041593 -0.29458588
0.129044 0.48642096 0.7973867 0.4490728 0.13491823 -0.43548942 0.007030547 -0.36540672
-0.23072617 0.49084938 0.232032 -0.5008895 0.06103147 -0.20122617 -0.080738 -0.36069995
0.15214665 -0.23401386 0.10740117 0.32425922 0.3656355 0.11194326 -0.5670052 -0.5122209
0.19408542 0.06786611 -0.4202114 -0.33060932 0.45592335 0.34264386 -0.17068672 -0.41147596
-0.26168415 0.09141282 -0.35612208 -0.24711332 0.00872117 0.15257587 -0.17697962 0.5886103
-0.30235955 0.43036088 0.28630006 -0.3396194 -0.08537988 -0.053075176 0.025091412 0.16509041
0.17358793 -0.09050582 -0.2192537 0.028769905 -0.3917037 -0.24933538 -0.10969616 -0.33617315
-0.08719718 -0.6050985 -0.086292304 0.14868596 -0.26550603 -0.049237795 0.24696116 -0.13055585
-0.0055239336 -0.007858775 0.049859453 0.38329166 0.38633782 0.26467988 0.44005534 -0.06188388
-0.32849467 -0.3691925 0.31007808 -0.060010463 -0.1656568 -0.7191971 -0.5217398 -0.5427138
-0.09929298 0.26320747 0.15387519 -0.52452844 0.23847687 -0.5670571 -0.07033941 -0.43829608
-0.14149536 -0.2453725 -0.52452177 -0.5207457 -0.053751223 0.037768915 -0.19953592 0.1558004
-0.3235076 -0.0799422 0.3877061 -0.10880947 0.35041815 0.0747118 -0.5922781 0.13311456
-0.043481424 -0.18681045 0.2994704 -0.61176133 0.052670244 0.007876476 0.3168257 0.21976303
0.2139949 0.18804081 -0.098425314 -0.2992363 -0.3020227 0.44355607 0.21788703 0.4971214
-0.2656757 -0.062704705 -0.34398732 -0.38162887 -0.24190412 0.20147043 -0.23466808 0.0031049005
-0.014142257 0.38766012 -0.36016592 -0.44792587 -0.42076075 0.3723736 -0.14314997 0.543632
0.1609683 0.070911765 -0.010852253 -0.2294625 0.05936435 -0.11172012 -0.020960506 0.15683943
-0.27198616 -0.40539902 0.25995818 -0.6236872 -0.013931976 0.86097246 0.1050122 0.12824094
-0.2596136 0.31543735 -0.2999472 -0.22276556 -0.118985385 0.017123612 -0.013214311 0.6090754
0.055719744 0.3871357 0.17365439 -0.33170205 0.15281928 -0.36011383 -0.18503252 0.11841237
0.15997139 0.4309042 -0.13307431 -0.06329123 0.18841986 -0.6572621 0.3085315 -0.41706643
0.0040308433 -0.06607445 -0.23551738 -0.09989361 0.37383866 -0.045018915 -0.18740025 -0.34246555

fc1.bias f4 [128]
00000000: daa4 26be 8fb9 31be b350 ab3d b393 0e3e
00000010: 2612 1dbe 04b5 fe3d 3d11 f63e 4885 6cbd
00000020: 1a04 24be 3434 663d 5de7 523e 79d1 08bf
00000030: d8cc eebe 1a54 8dbe 8328 b13e 1cca 8ebe
00000040: 726c 253d 07e1 ddbe f29c 613f 73b7 3c3f
00000050: cabf c7be c6a1 e9be 2c13 82be f00c d0bd
00000060: 7f4e 7ebe 1c14 c6be abe2 b4be 6375 c9bd
00000070: 5563 83be a69b 923d d80f 28be 6326 9ebd
00000080: 4f6f 163e d0f4 cb3e f9e0 afbe 511a 093d
00000090: bfa4 59be c1e2 063f 0266 04bf 1149 2fbf
000000a0: 0937 0a3f 98aa abbe 6378 053d 2ae0 1ebe
000000b0: 1ce0 be3d e88f 25be 2225 843e 881f 8f3d
000000c0: b440 48bf e36a bbbe 6c3e 35be f5a6 ce3e
000000d0: 9d3b debe f0e9 013f 9310 dab9 c500 34be
000000e0: 16d3 aa3e 5e62 b63e 2bd9 b13e f122 b93e
000000f0: 281c 0cbe 496d cbbe 6820 8ebd 40a4 063f
00000100: a24c afbd b8fd e7be 598d 5b3e 21bb e23e
00000110: 90bd a4be abbe 00bf 1bec 1bbf 1013 d43d
00000120: f4e8 113d 49e8 bebe 8fc9 ac3c 9fa4 ca3d
00000130: cad1 e23e 623b fd3e 7258 bebd 4af1 f4be
00000140: 48ec 15bf 400c 903e db0d 843e 5098 083e
00000150: fb8f b43e 68c8 ed3e c999 903e 9cb9 233f
00000160: 9296 06bf 8c5f 85be afab a2be 1f6c e03e
00000170: 2bd5 79be ecfa 06bf b36d 203f 2485 36be
00000180: 1454 5ebe 3e3a 28bd b222 b6bd 0f39 e4be
00000190: cf83 a53e fa20 ccbc e44e 763e 4e23 f63e
000001a0: 25e5 8f3e a0d7 4a3d 1ebd a33e f7d7 a2bc
000001b0: 53c6 32be a046 033f 1688 a13d 905a f7be
000001c0: b0c0 10be d3ba eebe b8eb e73e 28de 6bbb
000001d0: 012d 26bf 4a54 7e3d ea2f 793e 5670 9f3d
000001e0: ada1 d23d ee6a 60bd efbe b73e cfb7 d8bd
000001f0: 8a6b d8bd 8939 08bf 306a c8be 313e 6a3e
-0.16273823 -0.17355941 0.083650015 0.1392353 -0.15338954 0.1243687 0.48060027 -0.057744294
-0.1601719 0.05620213 0.2059607 -0.5344463 -0.46640658 -0.27603227 0.3460122 -0.27888572
0.040386625 -0.43335745 0.88130105 0.7371742 -0.3901351 -0.45631236 -0.25405252 -0.10158718
-0.24834631 -0.38687217 -0.35329184 -0.09836843 -0.25661722 0.07158594 -0.16412294 -0.077221654
0.14690898 0.39835215 -0.34351328 0.033472363 -0.21254252 0.5268975 -0.5171815 -0.68470865
0.53990227 -0.3352859 0.032585513 -0.155152 0.09320089 -0.16168177 0.2580958 0.06988436
-0.7822373 -0.36604986 -0.17699593 0.40361753 -0.43404856 0.50747585 -0.0004159255 -0.17578419
0.3336417 0.35621923 0.34736 0.3615947 -0.13682616 -0.39731815 -0.06939775 0.52594376
-0.085595384 -0.4531076 0.21440639 0.44283393 -0.32175875 -0.50290936 -0.60907143 0.103551984
0.035622552 -0.37286595 0.021092204 0.0989468 0.4430068 0.49459368 -0.09294213 -0.4784034
-0.5856366 0.28134346 0.2579182 0.13339353 0.35266098 0.4644196 0.2824233 0.6395509
-0.525735 -0.2604946 -0.3177161 0.4383249 -0.24397723 -0.52726626 0.6266739 -0.17824227
-0.21711761 -0.04107117 -0.08893336 -0.44574782 0.32327124 -0.024918068 0.24053532 0.4807381
0.2810451 0.049522042 0.31980222 -0.01987837 -0.17458467 0.5127964 0.078872845 -0.4831128
-0.14136004 -0.4662691 0.45297027 -0.003599057 -0.6491242 0.062092103 0.24334684 0.07785098
0.102847435 -0.054789476 0.35887858 -0.10581934 -0.105673864 -0.5321279 -0.39143515 0.22875287

bn1.weight f4 [128]
00000000: 758d 893f 3e7b 913f 6217 6f3f 990a 7f3f
00000010: e7cd 733f 9e17 883f 9823 7c3f 01de 913f
00000020: cecc 853f 864d 813f 4a3a 893f da28 863f
00000030: 62d0 893f 220b 6b3f 24b9 6e3f 3cac 6c3f
00000040: 45fd 823f af93 723f 64f7 b63f 0893 8c3f
00000050: 8dde 673f 140c 903f 513a 753f 6fa5 a13f
00000060: 63fa 7b3f ca4e 7b3f bd89 633f 1236 843f
00000070: 32f7 8b3f 242d 753f d637 733f d815 873f
00000080: a641 833f a4fe 7f3f 9398 7e3f 8d99 7a3f
00000090: 5c09 8c3f 08df 8b3f 845e 803f 3590 843f
000000a0: 64db 993f b46c 743f 0500 913f 8331 853f
000000b0: 7472 903f ef02 803f 2295 7e3f f4f1 7e3f
000000c0: c08a 853f 23d0 753f 78c2 813f f75a 9e3f
000000d0: 833a 823f df4b 833f fdb8 7b3f f0d8 833f
000000e0: ddb1 723f 7f25 9c3f b8ef 743f 8c0f 713f
000000f0: 7318 793f 77f6 7f3f d3c0 763f a6fa 723f
00000100: 1bb5 7c3f 6b79 743f f6a2 7a3f 11d2 7a3f
00000110: 0232 8f3f 8272 923f 5e1f ad3f cbe4 873f
00000120: 9849 6c3f bdf0 873f a57b 713f 025d 6f3f
00000130: 0f4e 863f c135 783f 88b4 6e3f 2bbd 783f
00000140: 286d 813f 730a 843f 4d35 7e3f 6e7e 853f
00000150: 0a65 743f 2807 ab3f 5d2a 8b3f fe2e 9b3f
00000160: 39d8 823f ee53 853f ab75 773f ef8a b63f
00000170: cfe6 843f 8b36 733f 424d 793f 22d2 833f
00000180: 97a9 7a3f b431 763f 4846 6e3f 753c 873f
00000190: 8872 873f 5677 a13f 6f6f 743f ea52 6a3f
000001a0: 9c79 883f 9564 7e3f 30ea 933f d7de 713f
000001b0: 9e79 733f 16ea 803f 8cd9 9c3f 6f03 833f
000001c0: 4d52 983f 7d26 843f 9279 8c3f 20af 8e3f
000001d0: 0798 8b3f ce00 7d3f 60ea 8f3f 5f44 823f
000001e0: 6073 723f b82e a23f 4f08 843f 13e9 7a3f
000001f0: 156a 8f3f 4f86 753f c200 883f 6677 833f
1.0746294 1.1365736 0.93395054 0.99625546 0.9523606 1.0632207 0.9849181 1.1395875
1.0453126 1.0101783 1.0720913 1.0481217 1.0766718 0.9181386 0.9325125 0.9245031
1.0233542 0.947566 1.4294248 1.098237 0.9057396 1.1253686 0.9579211 1.2628611
0.98428935 0.981671 0.88882047 1.0329001 1.0934813 0.95772004 0.95007074 1.0553541
1.0254409 0.99997926 0.9945156 0.9789055 1.0940356 1.0927439 1.0028844 1.0356508
1.2020078 0.9547837 1.1328131 1.0405735 1.1284928 1.0000895 0.9944631 0.9958794
1.0432968 0.96020716 1.0137472 1.237151 1.0174106 1.0257529 0.98329145 1.0300579
0.9480265 1.2198943 0.9567828 0.9416435 0.9730293 0.9998545 0.96387976 0.9491371
0.98713845 0.9549777 0.9790491 0.97976786 1.1187136 1.1441195 1.3525198 1.0616697
0.92299795 1.0620342 0.9432929 0.93501294 1.0492572 0.9695702 0.9324422 0.9716365
1.0111437 1.0315689 0.9930008 1.0429208 0.95466673 1.3361559 1.0872303 1.2123716
1.0222236 1.0416238 0.9666392 1.4261149 1.0382937 0.950051 0.9738351 1.0298502
0.97915024 0.9616959 0.9307599 1.0565325 1.0581827 1.2614543 0.95482534 0.91532767
1.0662112 0.99372226 1.1555843 0.9448065 0.9510745 1.0071437 1.225389 1.0235423
1.1900116 1.0324246 1.09746 1.1147194 1.090577 0.9882935 1.12434 1.0177115
0.947073 1.2670507 1.0315036 0.98011893 1.1204249 0.95908064 1.0625231 1.0270813

bn1.bias f4 [128]
00000000: 0731 abba 815b ff3b adb0 30bc fd18 2cbc
00000010: 6e19 e03d 89bc 4f3d 4789 353e 7fbe 72bd
00000020: eec9 febd ed4c 353e d026 60bb a12f adbd
00000030: 3584 aabd 92f0 66bc 2da5 eabd 1e73 00be
00000040: fdc2 b53c 5d69 8abd 9615 663e 044f 9b3d
00000050: 58bb 093e 28df 22bd ac50 983d 072a 94bd
00000060: 5ea2 d4bd cc9d 0cbd 88a5 95bd f255 c3bd
00000070: acfc d83c ba77 603c 09e9 8cbd 43b4 013d
00000080: 1662 83bd 874c 833d 52ea 533d b966 043d
00000090: c21b 013d f6c1 963d b92b 453a 4fd6 87bb
000000a0: 17cd 173d e266 5fbc 92d3 e03c 5bf2 91bd
000000b0: 297d 383e a83b 223c 1886 67bc cd19 e03d
000000c0: d8aa 1abe de5c 1cbc 0684 323c 0d4f 56bd
000000d0: fd63 043d 0c8f a5bb 6c66 da3d 2ce4 913c
000000e0: c021 1e3d 93a9 313c febe 17bd fb21 7c3d
000000f0: 4114 b6bb 33e3 28bd 865e 013d 31d6 1cbc
00000100: fcb8 713d 06b9 fc3c 31de bdbc d168 ddbc
00000110: 7645 3dbd 6bba a83c 0530 efbd 2947 053d
00000120: 89ab dd3c 22e7 2e3b 308f 3a3d bbbe 04bd
00000130: 7c32 3f3d 0ffe ea3d ca25 ae3c 67d1 76bc
00000140: 58c9 9cbd 0532 0cbe 49ff 35bd 5c91 b4bd
00000150: 7134 db3d b73b da3c 6c88 d4bc 104a a5bc
00000160: 0ee1 e439 55c9 9dbd f83d a1bd 6e75 863d
00000170: 85c7 f4ba 8dd5 26be 4861 d73d f260 01bc
00000180: 91eb 203d f296 3dbc 7945 7cbd 9c4d 823c
00000190: dbdc e43c 0e20 e63d ffec 613d e4b1 67bc
000001a0: f7cc 023d 55b6 81bc 041f 673b 1b34 39bd
000001b0: acda f43d 156b c03d 6b77 96bd 4fb4 3dbd
000001c0: 0284 123d 5004 0ebe 0d8d 94bc 626e 9c3d
000001d0: afda 63bc 083c 9cbc 2cd4 713d 4876 8dbc
000001e0: dfac 1b3d d19d 0fbd 2f69 be3a a5b3 24bc
000001f0: d6be c43d 8218 d9bc dc91 afbd f60c b43b
-0.0013060876 0.0077928905 -0.01078431 -0.010504005 0.1094235 0.05071691 0.17728148 -0.059263702
-0.12440859 0.17705126 -0.0034202822 -0.0845635 -0.08325998 -0.014095442 -0.11457286 -0.12543914
0.022187704 -0.06758378 0.22469172 0.075834304 0.13450372 -0.0397636 0.07437262 -0.072345786
-0.103825316 -0.034330174 -0.07306963 -0.09537877 0.02648767 0.01370042 -0.068803854 0.03166605
-0.06415193 0.06411081 0.051737137 0.032324526 0.031520613 0.07361214 0.0007521469 -0.0041454206
0.037060823 -0.013635369 0.027444635 -0.07126304 0.18016495 0.0099019185 -0.014131092 0.10942421
-0.15104234 -0.009543626 0.010895735 -0.052321482 0.03232192 -0.005052453 0.10664067 0.017808996
0.038606405 0.010843652 -0.03704738 0.061555844 -0.0055566137 -0.0412323 0.031584285 -0.009572552
0.059014305 0.030849945 -0.023177238 -0.02702752 -0.04620882 0.020596704 -0.11679081 0.032538567
0.027059333 0.002668806 0.04554671 -0.032408457 0.046679005 0.11474239 0.021258254 -0.015064574
-0.07655591 -0.13690956 -0.044432912 -0.088167876 0.10703362 0.026639802 -0.025943957 -0.020176917
0.00043655228 -0.07704417 -0.07873148 0.06565367 -0.0018675184 -0.162924 0.10516602 -0.007896649
0.039287154 -0.011571633 -0.06158969 0.015906148 0.027937343 0.11236583 0.055157658 -0.0141415335
0.03193375 -0.015834013 0.003526629 -0.045215707 0.11955771 0.09395424 -0.07346996 -0.046314534
0.035770424 -0.13868833 -0.018133665 0.07638241 -0.013907119 -0.019071594 0.059040233 -0.017268315
0.03800666 -0.035062615 0.0014527197 -0.010052596 0.096067116 -0.026500944 -0.08572742 0.005494709

fc2.weight f4 [64, 128]
00000000: b660 a1bc b17a 96bc 19d8 313d 8a43 b63b
00000010: 5256 5ebd 59e3 703d 26a2 a4bd a0a1 873c
00000020: dfc3 57bd 05d7 15bd da75 843d 4ed5 8cbc
00000030: 9424 b23d 6c9f 93bd 18ea 7fbd 05cf 30bd
00000040: 7f4d f4b9 a29a 953d c5c9 87bd ae90 9e3c
00000050: 9124 a8bc 46af 703d 38bf 263d fcaa b2bd
00000060: 0699 0f3c bcde c83d 0c3a e33b 1386 913d
00000070: 59b9 f4bc 23c9 753d d3a7 9dbd feea a23b
00000080: ecc7 403c ba6d f73c 01aa 5b3c e446 2f3d
00000090: 01f7 053c 021f ec3c b890 463d 0719 0a3d
000000a0: 53ce df3d ea71 28bd 3348 733c b6bb 00bd
000000b0: e67d 983c b32f e93c 91b0 64bc 2607 a2bd
000000c0: b59e 863d 6943 5f3d db7f 883d 596e f0bd
000000d0: dcc4 a33d 84f6 023d 454d a03c 6ca2 f9bd
000000e0: a517 ae3d 7ab1 06be c1a9 4bbc 2d7c 273c
000000f0: 4190 31bd b7b8 293d 6d96 7cbd e14c b83c
00000100: ee6a d3bc 803b c3bb f3e4 2b3c 5d80 a83d
00000110: a656 65bc 3c50 923d da56 483d 5483 58bd
00000120: 6811 62bd f6e0 15bd 170d ae3d 46fc 0abc
00000130: 043b 07bd 7d39 483c f6c9 0d3d 434b b43d
00000140: 32cd d73d 1b0c aebd 13e6 7fbc ec1f 8abd
00000150: e5ef 90bd c446 edbb 422b 9b3d d0f1 12be
00000160: 353c 653d 4c0a 88bc f09f ffbb a269 1c3d
00000170: ff8c babc 919b f83c 10be 9fbd 18c6 3b3d
00000180: 9098 25bd 3604 8abd 069b 2c3d 437d 92bd
00000190: 971d a4bd dcef efbc 7ef3 c23d d09a 19bd
000001a0: a6a7 23bc 0e3b 9a3d f057 b83d 9658 edbc
000001b0: 4cda 62bc 648c 20bd 80e0 21be 651f 44bc
000001c0: 4371 103d 639f 753d cd62 6e3c b979 133d
000001d0: e6b8 7b3c 93fe 603d 7ac0 443c edf1 91bd
000001e0: d13f da3c 5724 8d3c a807 a7bd 74ca 593d
000001f0: d64d 2f3d f011 89bd c4ca 2fbd 0dc5 133d
00000200: e8be 63bd 24dd 8dbd 86f0 be3c 3327 bcbd
00000210: b784 493d f774 a03c b5bc 983d 10ad 33bd
00000220: 4416 ac3d 3ef1 18bd a8fc fc3d feff c3bd
00000230: f08d d9bd 4faa 0e3d ddbf 903c bd8f d43b
00000240: 60d1 0ebd d091 25bd 770f 94bd d36f 31bd
00000250: 0aa5 af3c 7980 d33c 25f7 ba3a be64 cb3c
00000260: 5cb1 a43d 914b bb3c 773c 32bd 3c5d 34bd
00000270: 46bf 1abd a545 86bd 322d 98bc a9b4 d4bc
00000280: 49e7 513d 27cd 07bd b32f 3e3d 8c4b 46bd
00000290: 8b26 153b 6a36 7e3d 76b9 d23d 639a 85bd
000002a0: ec65 aa3b 6f5c 043c d44b 1cbd 2686 00bd
000002b0: cfd8 f63c 2511 90bd 07ca de3c c063 423d
000002c0: 3c86 15bd 1503 663d e8cb 053b c0af e13c
000002d0: e689 b03d cae7 faba 8868 593d 2cc8 d4bc
000002e0: ad4b 17bd 8db5 dbbc 48ec 403b 3b7f 29bd
000002f0: e54a 603c bec1 00bd 803f 783d 076f 2cbc
00000300: 2500 62bc a2cd 52bd 4743 99bd 22fd 223d
00000310: 90e7 a939 50a2 8bbc bc28 8fbd 4dcf 8c3b
00000320: ac3e fdbb 4cb1 983d d91d b83c fa85 053d
00000330: 6b00 223d c343 22bc a910 2f3d 0ef3 5f3d
00000340: 7634 11bc 190b ea3c 817c 063c 9b22 743d
00000350: 4dc0 d8bc 2d53 3abd e541 803d 0e33 b5bd
00000360: 3ae7 f0bc f0e3 0bbd ff50 ac3d f225 0bbe
00000370: 506a 683d 3aa3 a93d c413 d93c d510 833c
00000380: 4260 a73d 5603 0bbd 815b 613c 5ade 30bd
00000390: 8ee2 a2bc 2e5b 2f3b ba67 f43b d388 8ebc
000003a0: ff51 e7bd 0a80 11bc 39a9 a23c 5a5b 9f3c
000003b0: ac66 7c3d 6e4e c03d 6ba7 30bd 8ad0 20bd
000003c0: 49b7 7dbd 78fe a3bd 3451 03bd d0fa ab3d
000003d0: 8c23 f03c 3060 4e3d 907a 5b3d 84d2 c5bd
000003e0: 5876 8f3c c094 993d 9fbf 2bbd 2acb 9e3d
000003f0: 5261 cc3c 1a55 5e3d 2ea0 e3bb 393a 173d
-0.019699436 -0.01836905 0.043418977 0.0055622505 -0.05428154 0.058810566 -0.0803874 0.016556561
-0.05267703 -0.03658201 0.06467791 -0.017191555 0.08698383 -0.07208142 -0.06247911 -0.04316618
-0.00046597046 0.073048845 -0.06630281 0.019356098 -0.020525249 0.058760904 0.040709704 -0.08724019
0.008764511 0.09808108 0.00693441 0.07105651 -0.029873537 0.060006272 -0.076980256 0.004971861
0.011766415 0.030203689 0.013407231 0.042792216 0.008176566 0.02882338 0.04847786 0.033715274
0.10928025 -0.041124262 0.014848757 -0.031429015 0.01861472 0.028465128 -0.013958112 -0.0791152
0.0657324 0.054507647 0.066650115 -0.11739797 0.07996532 0.031973377 0.019568095 -0.12189183
0.085006036 -0.1315364 -0.012430609 0.010222477 -0.043350462 0.041435923 -0.061666895 0.022497596
-0.025807824 -0.0059580207 0.0104915975 0.08227608 -0.013997709 0.0714421 0.048910953 -0.05285962
-0.05519238 -0.036591493 0.084985904 -0.008482998 -0.033015266 0.0122207375 0.034616433 0.088034175
0.10537185 -0.08498403 -0.015618819 -0.0674437 -0.07077006 -0.007241102 0.0757661 -0.14350057
0.05596562 -0.016606472 -0.0078010485 0.038186677 -0.02277231 0.030347617 -0.077999234 0.045843214
-0.040428698 -0.067390844 0.04214003 -0.07152798 -0.08013456 -0.029289179 0.09519099 -0.037501156
-0.009988701 0.07530795 0.09001148 -0.028972905 -0.013845991 -0.039196387 -0.15808296 -0.011970376
0.035264265 0.059966456 0.014549923 0.036004756 0.015363907 0.05493028 0.012008781 -0.07126222
0.026641758 0.017229242 -0.08155757 0.05317159 0.04279884 -0.066928744 -0.04291798 0.036076594
-0.055601984 -0.06926945 0.02330805 -0.09187164 0.049198832 0.019587023 0.07457868 -0.043866217
0.08402684 -0.03733944 0.12352878 -0.09570311 -0.106227756 0.034830388 0.017669613 0.0064868615
-0.034867644 -0.04042226 -0.07229512 -0.043319535 0.021441001 0.025818096 0.0014264329 0.024828311
0.08041641 0.022863181 -0.043514695 -0.044034228 -0.03778007 -0.065562524 -0.018576238 -0.025965052
0.05124596 -0.033154633 0.04643221 -0.04841189 0.002275857 0.062063612 0.1028928 -0.065235876
0.0052001383 0.0080786785 -0.038158253 -0.031377934 0.03013268 -0.0703452 0.027195944 0.04745841
-0.03650497 0.056155283 0.0020415727 0.027549624 0.08620052 -0.0019142565 0.053078204 -0.025974356
-0.036937404 -0.026819969 0.002943771 -0.041381102 0.013689731 -0.031434767 0.060607433 -0.010524518
-0.01379398 -0.051465638 -0.07483535 0.039792188 0.0003240672 -0.01704517 -0.06990191 0.004297173
-0.0077284183 0.07455692 0.02247517 0.032598473 0.03955118 -0.009903851 0.042740498 0.054675154
-0.008862605 0.028569745 0.008208395 0.059603315 -0.026458884 -0.04548948 0.062625684 -0.088476285
-0.029407132 -0.034152925 0.08413886 -0.13588694 0.056742013 0.08283086 0.026498683 0.015999237
0.081726566 -0.03393873 0.013754726 -0.0431808 -0.01988342 0.0026757228 0.007458654 -0.017399227
-0.112949364 -0.008880625 0.019856082 0.01945274 0.061621353 0.09389959 -0.043128412 -0.03926138
-0.061942372 -0.080075204 -0.032059863 0.08397448 0.029313825 0.0503847 0.05358368 -0.09659293
0.017512485 0.07499075 -0.04193079 0.07753594 0.02494875 0.054280378 -0.006946585 0.03692076

fc2.bias f4 [64]
00000000: bfd5 53bc 2e3e e23c ace3 623d e5af c0bc
00000010: 6da3 91bd b46b 2d3d 3e22 e6bc fa78 d13c
00000020: 5a75 133d e6bf afbc 075b 6ebd 0976 aabb
00000030: e631 183e 4e1a a4bd 935a c43d 1191 c33c
00000040: 0d52 2abd 62fa d03c c927 3bbd b87a de3c
00000050: fccf 043d 27f3 c6bd 5c55 1ebb 13e8 12bd
00000060: de73 5e3d 2d13 e6bd 1165 83bd e71b bd3d
00000070: 6ffb 293d 42bc 1e3d 522c 3f3d 624e 00be
00000080: 7f05 5abc fb79 8fbc 7172 af3d 1694 433d
00000090: 5728 3d3c cb9b 243d 216a 8f3d 41d4 a6bd
000000a0: 67b5 48bd 9519 80bd f522 0a3c 2e92 9e3d
000000b0: 132f cdbb 5bf6 b53d 7493 103d e994 71bc
000000c0: 8605 8ebc 68eb 0d3e da94 5d3d bafc 433d
000000d0: 61dc 963d 960d 693d 1cde 023d 3139 39bc
000000e0: 80c4 a8bd b69d b8bd e27a bdbd d2a5 d73d
000000f0: 76f1 e83d 7319 51bd 5fd3 bd3d 2ede a83b
-0.012929379 0.02761754 0.055392906 -0.023521373 -0.07111249 0.04233904 -0.0280925 0.025570381
0.036000587 -0.021453809 -0.05819228 -0.005202059 0.14862785 -0.0801283 0.09587588 0.023872884
-0.041582156 0.025510017 -0.04569224 0.027158126 0.03242491 -0.097143464 -0.0024159765 -0.035865854
0.05430972 -0.11234126 -0.06415761 0.092338376 0.04149955 0.038753755 0.046673127 -0.125299
-0.013306974 -0.01751422 0.0856675 0.047748648 0.011545262 0.04018764 0.07002664 -0.08145953
-0.049001124 -0.062548794 0.008431186 0.07742725 -0.006261715 0.08884879 0.035296872 -0.014744976
-0.017336618 0.13859332 0.054097034 0.04784844 0.07366253 0.056897722 0.0319501 -0.011305139
-0.082406044 -0.09014456 -0.09251954 0.105296746 0.1137418 -0.05104966 0.092688315 0.005153439

bn2.weight f4 [64]
00000000: 4522 a73f a251 9f3f 243d a13f 028f d13f
00000010: c01c b73f eb17 9e3f d3a2 d93f 2c7c df3f
00000020: 93ca fe3f 6330 ad3f f9b6 c43f 46a6 a53f
00000030: ea63 fa3f a8c1 a73f 1df4 c83f 5b6f 973f
00000040: 27ae a03f 4bb5 cd3f 3968 ae3f 0cbf b73f
00000050: c82d 9f3f 9e86 d83f 8ded f33f b8b0 b53f
00000060: 1064 b13f 8db9 dc3f 3222 c73f 5641 a03f
00000070: acb9 983f f329 a93f 6213 a33f 8dbc b63f
00000080: cd3e a73f eddd d43f 349d b23f 3ea5 a73f
00000090: 77f1 9a3f 454f 9d3f 81fd a73f 15fe 9d3f
000000a0: 75a8 a13f 839b df3f 79a5 aa3f 588c dd3f
000000b0: 66e8 bc3f d266 b53f e8cd a43f 16d6 f33f
000000c0: e069 953f d220 d93f 441c f03f 3bff d13f
000000d0: a63e dc3f f158 aa3f 4ab7 a83f dd02 f33f
000000e0: 1f46 9b3f 47e1 bc3f 8335 e23f fb1c 9e3f
000000f0: 9d1b f73f 34cc be3f 7365 c53f aa24 a33f
1.3057333 1.2446787 1.2596784 1.6371768 1.4305649 1.2351049 1.7002815 1.7459769
1.9905571 1.3530391 1.5368339 1.2941368 1.9561741 1.3105974 1.5699497 1.1830858
1.2553147 1.6070951 1.3625556 1.4355178 1.2435846 1.6916082 1.905687 1.4194555
1.3858662 1.7244126 1.555731 1.2519939 1.1931663 1.3215927 1.274029 1.4276291
1.306604 1.6630226 1.3954225 1.3097303 1.2104939 1.2289816 1.3124238 1.2343165
1.2629534 1.7469333 1.3331748 1.7308455 1.4758422 1.4172003 1.2875338 1.9049709
1.1672935 1.6963141 1.8758626 1.6406015 1.7206619 1.3308393 1.3180935 1.8985249
1.2130774 1.4756249 1.767258 1.2352594 1.9305302 1.4906068 1.5421585 1.2745564

bn2.bias f4 [64]
00000000: b21b 34be 6c3c be3d 1ebb 1abe b8be e9bd
00000010: 2dd4 1bbe 14e2 b03d 0cc9 d0bd 80b3 06be
00000020: 42fc 823e 36e8 edbd e43a 11be 9535 ef3d
00000030: b5d3 833e e96a 7dbe e0a4 f83d 00ea bf3d
00000040: 6b5f ff3d 3220 dc3d 6c2a 2cbe 02e6 5a3e
00000050: bc30 133e bfa0 8fbd 6617 12be f71b 143e
00000060: 0048 d83d b9d2 8fbe fec0 00be e388 af3d
00000070: c7b7 9d3d 82e8 ad3d 2cd6 fdbd a644 14be
00000080: f355 20be 9d1e 623e 01d9 33be 1b3c 9e3c
00000090: ca0d 36bd 493d 5d3d d108 11be 6699 b53d
000000a0: 8e3a 52be c2d0 303e 7374 733e 62cb e83d
000000b0: c6be f0bd 94ed 113e 27cc e43d d8bf 7ebe
000000c0: 88f5 613d 73fa e03d e8d4 8bbd 1e29 423e
000000d0: d6b3 58be 4e50 c6bd b7e4 c63d 475f d0bd
000000e0: fe85 0dbe 44ce acbd b585 553d e2c7 f53d
000000f0: d40a 00be e5c3 55be bdb5 30be f321 813e
-0.1758869 0.09288868 -0.15110442 -0.1141333 -0.15217657 0.08636871 -0.10194597 -0.13154411
0.25583082 -0.11616556 -0.14182621 0.11680142 0.25747457 -0.24747814 0.121408224 0.09370804
0.124693714 0.10748328 -0.16813058 0.21376804 0.1437406 -0.07013082 -0.14266738 0.14463793
0.10560608 -0.28090456 -0.1257362 0.08571031 0.07701068 0.08491613 -0.12394366 -0.14479312
-0.15657787 0.2208199 -0.17563249 0.01931577 -0.044446744 0.054013524 -0.1416352 0.08867149
-0.2053015 0.17267135 0.2377489 0.11366917 -0.11755137 0.14250785 0.111717515 -0.2487787
0.055165797 0.109852694 -0.06827718 0.18960997 -0.21162352 -0.09683286 0.09711593 -0.10174423
-0.13820645 -0.084377795 0.052129466 0.12001015 -0.1250413 -0.20875509 -0.17256828 0.25221214

fc3.weight f4 [6, 64]
00000000: e094 233e 3441 12be cc2e 103e 7adc 3c3e
00000010: e255 4a3e 1a6a 50be f7df 753e c669 613e
00000020: f180 9dbe 3db3 0b3e b5a0 963e 411a 21be
00000030: bee3 8ebe e1fd 6e3d 11c6 6dbe d07b a3bd
00000040: 637e 0ebe eb57 14be ace4 663e 21e4 22be
00000050: ffe8 b7bd 3dd8 b3be c8d2 873e b5db 35be
00000060: 1bdd 18be 1e5f 683e 0cdf 2b3e b8b3 66be
00000070: 8676 07be 8143 7abe a69b 1f3e e1c2 8b3e
00000080: 6a69 5a3e cbd0 86be e027 543e 9f06 fd3d
00000090: 92cf 183e 6705 61be 5959 843e a33d 58be
000000a0: cef2 263e a017 4dbe 73d9 3fbe ce85 7fbe
000000b0: 35e6 883e 2567 85be b7c0 91be a0fc 403e
000000c0: a117 1fbe f337 86be 5684 933e efec 3abe
000000d0: 8d48 8e3e 3ba5 4a3e 97e3 37be d62b 5f3e
000000e0: 6519 1a3e 646e 5b3e e8cb 6fbe 0f98 32be
000000f0: c09c 9d3e c6d7 913d d5c8 1e3e 6d2e 87be
00000100: 58c7 453e 87d0 52be bd27 973e 303c f33d
00000110: c529 613e 2a03 01be 2153 9e3e 333d 563e
00000120: e077 43be de3e 463e 6ea4 7f3e 425a 4cbe
00000130: 5ab4 88be ce11 773e e67b 58be 30c5 c8bc
00000140: 14c3 18be 04b4 10be 1932 5d3e 5859 d1bd
00000150: 1b2a c8bd 92ee b4be 7fa6 793e 679c 8dbe
00000160: e5d6 97be 707a 073e 2b72 4d3e f6aa ffbd
00000170: 2743 55be 3fd5 22be 7245 4c3e 8a52 eb3d
00000180: 0b68 5e3e 22a7 84be 057c fa3d 5bcf 0b3e
00000190: 8d51 6e3e dafa 74be 762d 423e 9c60 09be
000001a0: 23cb 163e a889 27be 0279 85be 0329 5abe
000001b0: 4b8c 6e3e ca44 4dbe 7314 66be 6cd2 8f3e
000001c0: 28e8 04be 7cb7 93be 2ca9 963e 07cd 2ebe
000001d0: 42c6 663e a046 503e 59d8 6cbe 5510 5d3e
000001e0: 4507 633e a4da 3f3e 2da5 3bbe 03d0 05be
000001f0: 09a5 893e d4ac 783e e825 5b3e 42e1 1cbe
00000200: 6b07 633e 1327 c1bd c2f6 653e 1802 5d3e
00000210: a8cf 393e 22a3 43be 573b 693e 913b 7d3e
00000220: 0e9b 88be 1c2a 693e 5442 2f3e 4aca 1bbe
00000230: deee 88be 9cdc 213e 39cf 4abe 9fe6 b0bd
00000240: af8e 51be 5ef1 81be 9146 3a3e affe 0ebe
00000250: 4f14 e0bd 4ff2 58be c876 4a3e dbc0 a1be
00000260: 1f75 6cbe 5824 473e be18 0a3e 6ab5 6bbe
00000270: 7e00 f7bd e03a 0cbe 7491 213e d5cf 9f3e
00000280: 96a6 893e c85b 90be 6389 873e 2138 183e
00000290: 1c66 783e 48dc 13be f394 993d aa28 8cbd
000002a0: a4a5 693e d6e7 6ebe f132 05be e13c 85be
000002b0: 2737 113e 6b70 41be 5a2e 2bbe 2f27 733e
000002c0: 43ae 7cbd a3e4 96be 3f37 9b3e 84a7 4cbe
000002d0: 4ba2 473e 84da 153e 637d 80be 5469 7d3e
000002e0: 908d 383e 70dd 723e e808 9dbe 5246 3abe
000002f0: 3d7c 9c3e 390b 113e b69d 963e 912c 88be
00000300: 7e6c 1d3e b4b4 e4bd 6e26 963e 0161 5f3e
00000310: 741f 6a3e 19d4 7cbe de12 7b3e 99bb 4f3e
00000320: 8f51 a0be 08d3 5b3e 9c61 693e 24da 5dbe
00000330: c45c 71be 229f 2b3e e75c 0abe 003e 4dbe
00000340: 11a4 b4bd c0cb 36be dae7 5f3e ba7d 67be
00000350: 1620 54be 8198 89be fa03 263e d4ef 57be
00000360: 28f9 1dbe 60dd 163e ba91 6b3e 031b 67be
00000370: 74ea c6bd 5ba9 7cbe ab3d f43d 8897 903e
00000380: 3084 d53d 304a 95be a21e ef3d 790e cf3d
00000390: fa9b 5c3e b8ee eebd bab9 ee3d 25a4 01be
000003a0: 9d37 7f3d bf32 97be bb51 38be 16a3 52be
000003b0: 25b1 803e 1418 3bbe c199 2fbe 38cb 853e
000003c0: 2e34 fdbd d413 74be dc90 a73e 0b3b 2fbe
000003d0: 6bc9 713e 2658 063e 2ed8 28be 337c 8e3e
000003e0: cb94 4a3e 1bfa 0c3e 2ce4 abbe 7edc 10be
000003f0: c9b5 5a3e 468b 793e 77ad 1a3e e952 66be
0.1597476 -0.14282686 0.14080352 0.1844348 0.19759324 -0.20352975 0.24011217 0.22013006
-0.30762437 0.13642593 0.29419485 -0.15732671 -0.27908128 0.058347587 -0.23220088 -0.079826
-0.139154 -0.14486663 0.22548169 -0.15907337 -0.08979987 -0.35125914 0.26528 -0.17759593
-0.14928095 0.22692534 0.16784304 -0.22529495 -0.13228807 -0.24439813 0.15586719 0.27297118
0.21329275 -0.2633117 0.20718336 0.123547785 0.14922932 -0.21974717 0.25849417 -0.21117263
0.1630356 -0.20028543 -0.18735294 -0.24953386 0.26738134 -0.26055256 -0.28467342 0.18846369
-0.15536357 -0.2621456 0.28811902 -0.18254445 0.27789727 0.19789593 -0.17957912 0.21794066
0.1504875 0.2142883 -0.23417628 -0.17440818 0.30783653 0.07121234 0.15506299 -0.26402608
0.19314325 -0.2058736 0.29522505 0.11876714 0.2198859 -0.12598863 0.30922797 0.20921783
-0.19088697 0.1935992 0.24965069 -0.19956306 -0.26700097 0.24127886 -0.21141014 -0.024508089
-0.14918166 -0.1413117 0.21601142 -0.10222119 -0.09773656 -0.35338265 0.2437992 -0.27658388
-0.2965614 0.132303 0.20063083 -0.1248378 -0.20826398 -0.1590166 0.19948366 0.114903525
0.21719377 -0.25908762 0.12230686 0.13653319 0.23273297 -0.23923817 0.18962654 -0.1341576
0.14725928 -0.16361105 -0.26068884 -0.21304707 0.23295705 -0.20045772 -0.22468738 0.28090227
-0.12979186 -0.28850925 0.29425943 -0.17070399 0.22536567 0.20339441 -0.23129405 0.21588261
0.22170742 0.18735749 -0.18324728 -0.13067631 0.26883724 0.24284679 0.21401179 -0.15320304
0.22170798 -0.09431281 0.22457412 0.2158283 0.18145621 -0.19105199 0.22776543 0.24729754
-0.26680797 0.2276997 0.17115146 -0.15213886 -0.2674474 0.15806812 -0.19805612 -0.086377375
-0.20464586 -0.2537946 0.18190981 -0.13964342 -0.109413736 -0.21186183 0.19771874 -0.3159245
-0.23091553 0.19447458 0.13486001 -0.23018423 -0.12060641 -0.13694334 0.15778142 0.3121325
0.26884907 -0.28195024 0.26472005 0.14865161 0.24257702 -0.144395 0.07499113 -0.068436936
0.22817093 -0.23330626 -0.13007714 -0.2602301 0.14181195 -0.1889054 -0.167169 0.23745416
-0.061689626 -0.2947131 0.30315587 -0.19985777 0.19495504 0.14634138 -0.25095662 0.2474721
0.18022752 0.23717284 -0.30670857 -0.18190888 0.30563536 0.14164437 0.294172 -0.265965
0.15373418 -0.11167279 0.29326195 0.21814348 0.22863561 -0.24690284 0.24518916 0.20286407
-0.31312224 0.21467221 0.22791141 -0.21665245 -0.23570544 0.16759923 -0.13512002 -0.20043182
-0.08820356 -0.17851162 0.21865788 -0.22606555 -0.20715365 -0.26874164 0.16212454 -0.21087581
-0.15427077 0.14732885 0.23004809 -0.22568898 -0.09712687 -0.24673979 0.11925825 0.2824061
0.104256034 -0.29158163 0.116757646 0.10110182 0.21543875 -0.11666626 0.11656518 -0.12660272
0.062308896 -0.29530904 -0.17999928 -0.20570025 0.2513515 -0.18270904 -0.17148496 0.26131606
-0.12363468 -0.23835689 0.32727706 -0.17112367 0.23611991 0.13119563 -0.16488716 0.2782913
0.19783323 0.13767283 -0.3357252 -0.14146611 0.21358408 0.24369535 0.15105234 -0.22492565

fc3.bias f4 [6]
00000000: 8a50 3cbe 46b3 2bbe 7999 bbbd 575f 48be
00000010: dd62 54be 2b60 24be
-0.18390098 -0.16767606 -0.09160132 -0.1956762 -0.20740838 -0.1605231
