checkpoint.pth (torch, 42239 bytes, 10 tensors)

fc1.weight f4 [128, 4]
-0.0243299 0.30791053 -0.42403919 -0.39738348 -0.18961097 0.14835945 -0.0182574 0.45432308
-0.03454554 0.1814875 -0.13356641 -0.038157318 -0.46537814 -0.25884053 -0.19072993 0.032419458
0.17586412 0.27224144 -0.30358654 -0.29978734 0.14647314 0.39121047 -0.10226238 0.43902802
-0.043217707 0.07517025 0.28243753 -0.5005775 -0.35453728 -0.16331553 -0.16499616 0.4717466
-0.3204491 -0.20123024 -0.3126735 -0.5493849 -0.27101588 0.48234817 0.20038563 0.2416243
0.050787482 -0.28394416 0.042254943 -0.46850833 -0.3038472 -0.2604152 0.30019176 0.2974979
-0.19251145 -0.10981649 0.3008155 0.51835257 0.20497954 0.05059795 0.27696547 -0.2712301
0.08858522 -0.35839012 -0.32956427 -0.19113187 0.19074284 0.21429281 -0.260541 0.122490756
0.26398137 -0.058555823 0.019131947 0.1674387 0.25734934 0.46704808 -0.3724461 -0.26077577
0.16557866 0.5410823 0.4713364 0.4450753 0.13514999 -0.42259017 0.023315629 -0.30089018
-0.31317958 0.45570543 0.2687017 -0.51556796 0.07472882 -0.11227825 -0.08429664 -0.2846427
0.18095753 -0.27614617 0.14474738 0.3321799 0.3701676 0.13382247 -0.5060383 -0.4229944
0.2225629 0.11039109 -0.40443215 -0.32359326 0.46408096 0.36583418 -0.1905545 -0.22531827
-0.38816765 -0.004313684 -0.36925045 -0.39619786 -0.006633277 0.075654805 -0.21420813 0.38092658
-0.34616226 0.4409297 0.30256972 -0.3733624 -0.10483011 0.0002878588 0.060176805 0.098351784
0.17321225 -0.09213637 -0.23502193 0.055752896 -0.43619552 -0.275694 -0.11912713 -0.31442496
-0.13486972 -0.46379277 -0.10541769 0.15116793 -0.30447766 -0.04013407 0.27297115 -0.07905229
0.008573873 -0.020415531 0.08080011 0.34046254 0.46063054 0.25999734 0.4580764 -0.030030394
-0.39586797 -0.35166538 0.31867027 -0.09219836 -0.20479414 -0.42289576 -0.49570778 -0.42603797
-0.08380867 0.24310626 0.1898641 -0.4909986 0.26409367 -0.42063174 -0.078819685 -0.31930628
-0.12386534 -0.05072041 -0.49841332 -0.43169862 -0.06481782 0.03210111 -0.21491694 0.18794507
-0.42200172 -0.07531732 0.36362314 -0.21283147 0.3961826 0.08203608 -0.49694806 0.23264782
-0.044122815 -0.23311682 0.3455315 -0.43637612 0.060651366 -0.11224564 0.3321672 0.1274218
0.23629051 0.1592913 -0.10574411 -0.21123683 -0.32666466 0.33240375 0.25669172 0.44186518
-0.31737766 0.010692083 -0.34886628 -0.33346182 -0.28808293 0.17824803 -0.27289352 -0.007835922
0.011208886 0.3463712 -0.3575496 -0.38620496 -0.32065096 0.33382118 -0.15801102 0.50834554
0.1784956 0.06427886 -0.0038576347 -0.13512543 0.057473257 -0.109489486 -0.0063163964 0.11427036
-0.31168023 -0.34756523 0.31187934 -0.47530523 -0.012245388 0.54273677 0.14391336 0.08389789
-0.41078955 0.2910109 -0.31143484 -0.20312966 -0.1711343 -0.06885362 -0.006519855 0.47339904
0.047236864 0.33909935 0.21998754 -0.360013 0.1849877 -0.31249192 -0.19474596 0.14084052
0.17113152 0.40144184 -0.15080392 -0.032681882 0.25380865 -0.5153625 0.34271923 -0.3827331
-0.0038939111 -0.07813781 -0.23826826 -0.006468195 0.40563777 -0.064640924 -0.21178828 -0.20812395
00000000: 804f c7bc 73a6 9d3e aa1b d9be d975 cbbe
00000010: 6129 42be 8aeb 173e 8b90 95bc 099d e83e
00000020: a07f 0dbd dcd7 393e a2c5 08be d94a 1cbd
00000030: 0b46 eebe bf86 84be b54e 43be 44ca 043d
00000040: b915 343e 3b63 8b3e b26f 9bbe ba7d 99be
00000050: 0efd 153e bd4c c83e f06e d1bd 48c8 e03e
00000060: 0d05 31bd dcf2 993d a79b 903e d925 00bf
00000070: e985 b5be 303c 27be c1f4 28be c588 f13e
00000080: e811 a4be 4d0f 4ebe be16 a0be 7da4 0cbf
00000090: 98c2 8abe 57f6 f63e e431 4d3e 5c6c 773e
000000a0: 8906 503d 2161 91be 8513 2d3d 53e0 efbe
000000b0: dc91 9bbe 2455 85be bcb2 993e a551 983e
000000c0: b921 45be 78e7 e0bd 7d04 9a3e c1b2 043f
000000d0: 28e6 513e cc3f 4f3d 6bce 8d3e acde 8abe
000000e0: 2b6c b53d e97e b7be a6bc a8be 13b8 43be
000000f0: 1752 433e 936f 5b3e a165 85be 6fdc fa3d
00000100: 9128 873e 3bd8 6fbd 9aba 9c3c 0d75 2b3e
00000110: 4bc3 833e ed20 ef3e 41b1 bebe 6784 85be
00000120: 748d 293e 5f84 0a3f 0153 f13e e9e0 e33e
00000130: c264 0a3e bd5d d8be 6b00 bf3c 470e 9abe
00000140: 1359 a0be 3952 e93e 4593 893e 43fc 03bf
00000150: 6c0b 993d 24f2 e5bd b7a3 acbd b0bc 91be
00000160: ee4c 393e 0863 8dbe a838 143e 7c13 aa3e
00000170: 9c86 bd3e c208 093e ba8b 01bf b992 d8be
00000180: 87e7 633e b914 e23d bb11 cfbe 04ae a5be
00000190: 059c ed3e 9e4e bb3e b820 43be d5b9 66be
000001a0: e9bd c6be ce59 8dbb 650e bdbe 72da cabe
000001b0: f65b d9bb e8f0 9a3d 6059 5bbe cf08 c33e
000001c0: 2e3c b1be 8ac1 e13e 6bea 9a3e 5b29 bfbe
000001d0: 2bb1 d6bd c1eb 9639 f47b 763d a96c c93d
000001e0: 8d5e 313e feb1 bcbd 97a9 70be 265d 643d
000001f0: 0555 dfbe c427 8dbe edf8 f3bd 4ffc a0be
00000200: 4a1b 0abe 3f76 edbe 3be5 d7bd c4cb 1a3e
00000210: 7fe4 9bbe 9f63 24bd e0c2 8b3e 2be6 a1bd
00000220: 6e79 0c3c 793e a7bc 877a a53d 1b51 ae3e
00000230: c4d7 eb3e 5f1e 853e fd88 ea3e 4d02 f6bc
00000240: 35af cabe 7c0d b4be c028 a33e 7ed2 bcbd
00000250: 8eb5 51be cb85 d8be 69cd fdbe a621 dabe
00000260: e1a3 abbd d9f0 783e bc6b 423e 2b64 fbbe
00000270: 4937 873e 0b5d d7be 376c a1bd 1d7c a3be
00000280: 1dad fdbd 34c0 4fbd 0830 ffbe 9a07 ddbe
00000290: 35bf 84bd 747c 033d 3013 5cbe ac74 403e
000002a0: 9c10 d8be f83f 9abd d02c ba3e 7ef0 59be
000002b0: 72d8 ca3e 8802 a83d fa6f febe 3b3b 6e3e
000002c0: 20ba 34bd 2db6 6ebe 81e9 b03e b16c dfbe
000002d0: 916d 783d 0be1 e5bd d211 aa3e dc7a 023e
000002e0: 24f6 713e 421d 233e 5e90 d8bd 784e 58be
000002f0: 9740 a7be d330 aa3e 196d 833e 273c e23e
00000300: 537f a2be d92d 2f3c 9a9e b2be 82bb aabe
00000310: 9b7f 93be a786 363e b3b8 8bbe 3d62 00bc
00000320: 7aa5 373c 9157 b13e be10 b7be a8bc c5be
00000330: 5d2c a4be 9cea aa3e a4cd 21be ef22 023f
00000340: 8dc7 363e a3a4 833d 5fd0 7cbb 525e 0abe
00000350: 1469 6b3d 063c e0bd c6f9 cebb 9406 ea3d
00000360: 8d94 9fbe 12f4 b1be a6ae 9f3e 355b f3be
00000370: e1a0 48bc ccf0 0a3f 065e 133e a8d2 ab3d
00000380: 0253 d2be 61ff 943e 6374 9fbe 3901 50be
00000390: d43d 2fbe 2003 8dbd 82a4 d5bb 5c61 f23e
000003a0: 717b 413d 6e9e ad3e 6a44 613e a053 b8be
000003b0: 6a6d 3d3e f1fe 9fbe 7c6b 47be 7f38 103e
000003c0: 1a3d 2f3e c989 cd3e 586c 1abe 70dd 05bd
000003d0: 35f3 813e ccee 03bf e578 af3e 98f5 c3be
000003e0: fd30 7fbb b706 a0bd 98fc 73be 27f3 d3bb
000003f0: c1af cf3e 7662 84bd 07df 58be 721e 55be

fc1.bias f4 [128]
-0.060341273 -0.09927617 0.17915851 0.23457494 -0.20917644 0.036795873 0.43319955 -0.041584183
-0.03604901 0.011071759 0.14565359 -0.48035815 -0.4072864 -0.315822 0.3597965 -0.27077225
0.1131321 -0.35472023 0.7506128 0.6796248 -0.34513178 -0.5403959 -0.24193713 -0.14860897
-0.19617237 -0.4125797 -0.2766449 -0.03291331 -0.3153689 0.0596813 -0.27528718 -0.32229
0.073418796 0.40504098 -0.28643984 -0.03262593 -0.25462893 0.49660394 -0.53737646 -0.5697661
0.5573581 -0.24163675 -0.029741466 -0.13747591 0.0411564 -0.1726544 0.28324798 0.1782374
-0.617602 -0.2628251 -0.19315055 0.28700542 -0.36716172 0.55676824 -0.15237638 -0.05365774
0.30428252 0.34186497 0.3044636 0.3630426 -0.20898515 -0.42095456 -0.06839619 0.5034835
-0.12346292 -0.4298371 0.18558098 0.4779493 -0.2655869 -0.48930934 -0.5925336 0.14041184
-0.05097868 -0.32200408 0.10141103 0.1589996 0.49301007 0.4303943 -0.06366885 -0.4919783
-0.566466 0.27116138 0.09592188 0.17706308 -0.118255064 0.4383466 0.42956197 0.52445966
-0.5196877 -0.24096376 -0.34498325 0.48873124 -0.12186429 -0.37981367 0.25793186 -0.21167593
-0.19179498 -0.06604836 -0.1108196 -0.41412115 0.38266653 -0.03940207 0.30065906 0.42273593
0.3367756 -0.05422392 0.36265633 0.09473918 -0.2138591 0.56787205 0.12460999 -0.56065553
-0.22594745 -0.41049707 0.49496537 -0.1380368 -0.5779262 -0.019012889 0.29987332 0.1509158
0.19234656 -0.0084852 0.3029835 -0.23031493 -0.12802249 -0.57869774 -0.42387158 0.33201355
00000000: 6928 77bd 4e51 cbbd 5475 373e 6a34 703e
00000010: 5932 56be 45b7 163d 55cc dd3e 2d54 2abd
00000020: 20a8 13bd 5366 353c 3726 153e 81f1 f5be
00000030: d887 d0be 6cb3 a1be 3f37 b83e a9a2 8abe
00000040: cdb1 e73d e49d b5be 2928 403f e4fb 2d3f
00000050: 1db5 b0be 6357 0abf 5ebe 77be f32c 18be
00000060: 69e1 48be a53d d3be 66a4 8dbe 1bd0 06bd
00000070: 0878 a1be 6174 743d 71f2 8cbe 3203 a5be
00000080: 985c 963d 8861 cf3e 3ea8 92be c4a2 05bd
00000090: b95e 82be df42 fe3e 8191 09bf 31dc 11bf
000000a0: 05af 0e3f a06f 77be 60a4 f3bc 7cc6 0cbe
000000b0: 9d93 283d 51cc 30be e105 913e dd83 363e
000000c0: 2a1b 1ebf 0391 86be 42c9 45be 60f2 923e
000000d0: 9ffc bbbe 5d88 0e3f 8e08 1cbe 38c8 5bbd
000000e0: ebca 9b3e ed08 af3e a7e2 9b3e b8e0 b93e
000000f0: 3400 56be 5b87 d7be 4d13 8cbd 4be4 003f
00000100: 21da fcbd 9c13 dcbe f108 3e3e c5b5 f43e
00000110: 02fb 87be c186 fabe 48b0 17bf 1fc8 0f3e
00000120: 05cf 50bd b8dd a4be 96b0 cf3d cbd0 223e
00000130: d16b fc3e a45c dc3e d064 82bd 94e4 fbbe
00000140: ea03 11bf aad5 8a3e b172 c43d 0650 353e
00000150: b62f f2bd f76e e03e 8cef db3e fd42 063f
00000160: 410a 05bf 34bf 76be a5a1 b0be fb3a fa3e
00000170: fc93 f9bd f076 c2be a50f 843e 93c1 58be
00000180: e765 44be 5d44 87bd 63f5 e2bd b007 d4be
00000190: deec c33e 1164 21bd fcef 993e d870 d83e
000001a0: da6d ac3e e719 5ebd 17ae b93e 9d06 c23d
000001b0: e1fd 5abe 1060 113f 8633 ff3d 1f87 0fbf
000001c0: c55e 67be ac2c d2be 1a6c fd3e 8559 0dbe
000001d0: f9f2 13bf ebc0 9bbc ff88 993e ac89 1a3e
000001e0: 7ff6 443e 8205 0bbc a720 9b3e add7 6bbe
000001f0: 5418 03be 8925 14bf b205 d9be aefd a93e

bn1.weight f4 [128]
1.0699586 1.0875328 0.9679965 1.0009879 0.9604679 1.005028 0.9754125 1.098178
1.0361782 1.0152255 1.00092 1.0014269 1.0172582 0.95282435 0.9431944 0.95495796
1.0022342 0.97090477 1.1623111 1.0446043 0.91835994 1.1129496 0.9796883 1.0689017
0.99471676 0.98591167 0.9295046 1.0271469 1.0843139 0.9762111 0.96664476 1.0086946
0.9980695 1.0009005 0.979612 0.97733146 1.0799565 1.0007553 0.9951081 0.99242616
1.1114805 0.97536385 1.1238215 0.99262655 1.0540998 0.9812769 0.9988098 0.97533536
1.0202956 0.97865623 0.9992883 1.2012291 1.0075564 1.0443742 0.98614764 0.9981128
0.9658534 1.2035795 0.95997393 0.9528329 1.0011557 0.971326 0.9706543 0.96562845
0.98452675 0.97084403 0.98002285 0.98463076 1.0704142 1.039065 1.1308624 1.0128218
0.9770011 1.0506665 0.9571549 0.96059674 1.0555341 0.9696521 0.9685882 0.97561425
0.9981521 1.0468159 0.99793667 1.045821 0.9535804 1.087781 1.0386374 1.1631497
1.0119817 1.0256405 0.9845271 1.1917976 1.0399024 0.96652097 0.97236824 1.0227809
0.9930597 0.9832303 0.9495825 1.0614512 1.0567454 1.0536227 0.96981615 0.9807745
1.0578831 0.9696298 1.0842729 0.9830776 0.9796177 1.0332894 1.0823662 0.9980314
1.084997 1.0494337 1.0619284 1.1129472 1.0679759 0.975618 1.0966706 1.013081
0.9698927 1.1135769 1.0248063 0.97311676 1.0391958 0.9748127 1.0217913 1.0305253
00000000: 67f4 883f 4634 8b3f 9ece 773f 5f20 803f
00000010: 39e1 753f c2a4 803f a2b4 793f 1991 8c3f
00000020: 7da1 843f e9f2 813f 261e 803f c22e 803f
00000030: 8435 823f 4cec 733f 3075 713f 2078 743f
00000040: 3649 803f 378d 783f 9cc6 943f 98b5 853f
00000050: a319 6b3f 2275 8e3f dacc 7a3f c5d1 883f
00000060: c2a5 7e3f b564 7c3f 03f4 6d3f 8d79 833f
00000070: ccca 8a3f f8e8 793f 0876 773f e81c 813f
00000080: 7c81 7f3f 821d 803f dac7 7a3f 6532 7a3f
00000090: 043c 8a3f c018 803f 68bf 7e3f a40f 7e3f
000000a0: fe44 8e3f 72b1 793f 62d9 8f3f c61c 7e3f
000000b0: beec 863f f734 7b3f 00b2 7f3f 94af 793f
000000c0: 0c99 823f 3789 7a3f 5cd1 7f3f e0c1 993f
000000d0: 9cf7 803f 0eae 853f 2c74 7c3f 5284 7f3f
000000e0: 2b42 773f e50e 9a3f dac0 753f dbec 733f
000000f0: df25 803f d2a8 783f cd7c 783f 6d33 773f
00000100: f209 7c3f 3c89 783f c7e2 7a3f c310 7c3f
00000110: 5503 893f 1500 853f 19c0 903f 25a4 813f
00000120: be1c 7a3f 3d7c 863f 1b08 753f abe9 753f
00000130: be1b 873f 1f3b 783f 65f5 773f dbc1 793f
00000140: e586 7f3f 10fe 853f c778 7f3f 76dd 853f
00000150: d81d 743f 683c 8b3f 12f2 843f 17e2 943f
00000160: 9e88 813f 3048 833f f809 7c3f d38c 983f
00000170: 861b 853f eb6d 773f 20ed 783f 7cea 823f
00000180: 2939 7e3f fbb4 7b3f d717 733f a2dd 873f
00000190: 6f43 873f 1cdd 863f df45 783f 0a14 7b3f
000001a0: b768 873f a939 783f 74c9 8a3f f9aa 7b3f
000001b0: 3ac8 7a3f d442 843f fa8a 8a3f fc7e 7f3f
000001c0: 2fe1 8a3f d853 863f 45ed 873f 0e75 8e3f
000001d0: 6fb3 883f 1ac2 793f b45f 8c3f a3ac 813f
000001e0: e34a 783f b089 8e3f da2c 833f 2e1e 793f
000001f0: 5e04 853f 538d 793f 0fca 823f 41e8 833f

bn1.bias f4 [128]
0.050893072 0.010761927 0.034531925 0.02541082 0.07060439 -0.02056523 0.11438701 -0.036853362
-0.034036536 0.11070819 -0.013900075 -0.02496395 -0.035887968 -0.022264982 -0.07752139 -0.11078474
0.007951726 -0.032846227 0.12370503 0.04205967 0.13646097 -0.0353321 0.052050676 -0.11373426
-0.061481558 -0.012837645 -0.02935199 -0.05277163 -0.01162094 -0.017674467 -0.038102534 0.032241523
-0.04015699 0.022104755 0.04070472 -0.02268739 -0.025079397 0.0339195 -0.0048362664 0.01731367
0.042716704 0.021266757 -0.01908377 -0.049914986 0.11297408 0.004873918 -0.0098624285 0.1015117
-0.057674184 0.033330478 0.016417837 -0.03984543 0.026417838 -0.0057164887 0.017012771 0.023003366
0.026548116 0.0025806276 -0.06598023 0.08025849 0.0058881124 -0.033520695 0.026963955 0.0009826904
0.02769488 0.0064055356 0.0015324355 -0.0048175305 0.019076798 0.009178844 -0.09907517 0.0330275
-0.003638119 0.015262686 0.026210098 -0.014926021 0.029254718 0.06589886 0.027249267 -0.0032831444
-0.054992728 -0.106285736 -0.0693123 0.016278816 0.059732795 0.009039271 0.011108276 -0.015971959
-0.01777397 -0.033541158 -0.04694569 0.073880546 0.018969366 -0.039878163 0.005694649 -0.030708643
0.034586493 -0.012895069 -0.045138787 0.069406606 0.072371766 0.07941188 0.07239015 0.036747605
0.023797972 -0.025586125 0.013500174 0.0017190765 0.08881635 0.06848813 -0.058770042 -0.030829232
-0.025728459 0.011865754 -0.0010945832 -0.019235354 -0.010690277 -0.030318506 0.036358595 0.00997175
0.033883534 -0.013790797 0.012020913 -0.049279056 0.07696859 -0.0550095 -0.059134215 0.014473362
00000000: 4175 503d cb52 303c 5971 0d3d 5a2a d03c
00000010: 0999 903d 6a78 a8bc bd43 ea3d 8df3 16bd
00000020: e569 0bbd faba e23d 24bd 63bc 3381 ccbc
00000030: 43ff 12bd 0d65 b6bc 89c3 9ebd 1ce3 e2bd
00000040: f547 023c c489 06bd 1059 fd3d c346 2c3d
00000050: 6dbc 0b3e 64b8 10bd 1733 553d 82ed e8bd
00000060: 16d4 7bbd fc54 52bc 9673 f0bc 1127 58bd
00000070: c165 3ebc 0bca 90bc 6711 1cbd b00f 043d
00000080: a87b 24bd 0815 b53c feb9 263d e8da b9bc
00000090: 4f73 cdbc 2cef 0a3d 8b79 9ebb 66d5 8d3c
000000a0: b6f7 2e3d 9f37 ae3c 9155 9cbc a873 4cbd
000000b0: f45e e73d 63b5 9f3b 0696 21bc 5ee5 cf3d
000000c0: c43b 6cbd 8a85 083d b37e 863c f634 23bd
000000d0: 396a d83c 6251 bbbb 5e5e 8b3c 8e71 bc3c
000000e0: 6f7b d93c bf1f 293b a520 87bd 905e a43d
000000f0: 11f1 c03b ff4c 09bd 83e3 dc3c 9ecd 803a
00000100: 5fe0 e23c 87e5 d13b 01dc c83a 60dc 9dbb
00000110: f246 9c3c dd62 163c ece7 cabd d847 073d
00000120: 826d 6ebb 5810 7a3c 8fb6 d63c 458c 74bc
00000130: 97a7 ef3c fbf5 863d db39 df3c 062a 57bb
00000140: 0e40 61bd 56ac d9bd 9bf3 8dbd 275b 853c
00000150: 60aa 743d 7319 143c 7dff 353c a0d7 82bc
00000160: b79a 91bc 7462 09bd 204a 40bd af4e 973d
00000170: a565 9b3c 4957 23bd 2e9a ba3b b190 fbbc
00000180: 91aa 0d3d d745 53bc 73e3 38bd 0d25 8e3d
00000190: a637 943d b2a2 a23d 4941 943d a884 163d
000001a0: f7f3 c23c fe99 d1bc d52f 5d3c a352 e13a
000001b0: 59e5 b53d 8143 8c3d dbb8 70bd 968d fcbc
000001c0: 7dc4 d2bc 9468 423c 1e78 8fba 7693 9dbc
000001d0: 4626 2fbc 845e f8bc c0ec 143d 8d60 233c
000001e0: 76c9 0a3d ccf2 61bc 5df3 443c d6d8 49bd
000001f0: b5a1 9d3d a451 61bd b836 72bd ae21 6d3c

fc2.weight f4 [64, 128]
-0.017529938 -0.023041306 0.059738304 0.0072523886 -0.040839046 0.08605298 -0.078537874 0.030799907
-0.06724375 -0.028571356 0.04736222 -0.03626786 0.066199124 -0.067387395 -0.068328425 -0.038517833
0.00011536753 0.08715317 -0.054812066 0.022144403 -0.020180356 0.017515289 0.043668687 -0.06318425
0.019851647 0.08759978 -0.0016257677 0.07788524 -0.028301666 0.05724249 -0.07909168 -0.0013611694
-0.02267934 0.027005289 0.014153907 0.053668037 0.0035571172 0.0083293775 0.04811067 -0.00025154374
0.09627752 -0.043410912 0.00846255 -0.02239063 0.015053076 0.029559102 -0.008178617 -0.08410969
0.057440147 0.0505328 0.07183785 -0.098146535 0.072943546 0.041196436 0.012953078 -0.096798666
0.081604704 -0.12874521 0.00052226055 0.006867412 -0.034253087 0.036442045 -0.062972076 0.021157753
-0.03696364 -0.015386717 0.006344292 0.07956897 -0.027306609 0.050144315 0.027636452 -0.03168089
-0.058680385 -0.041655764 0.08134106 -0.008736732 -0.033219934 0.023482079 0.038938887 0.07988628
0.10263646 -0.07637371 -0.0070466064 -0.07175966 -0.0573174 -0.00968059 0.07336603 -0.121795885
0.05275724 -0.017495565 -0.01645937 0.054808002 -0.025607476 0.019886278 -0.06869338 0.056674536
-0.020366682 -0.060500838 0.031062076 -0.07474576 -0.08544451 -0.029009417 0.10044776 -0.030867018
-0.005105471 0.05198119 0.082228266 -0.030019972 -0.010073146 -0.032460123 -0.1111351 -0.00038412804
0.028070234 0.055370957 0.023995508 0.04002217 0.0084953215 0.043648694 0.00010954288 -0.06567461
0.018856013 0.036476046 -0.090295635 0.055188783 0.024537783 -0.06775924 -0.03681055 0.05432193
-0.06964038 -0.033210773 0.013866418 -0.08848657 0.04648251 0.042381056 0.0590781 -0.036674757
0.08139141 -0.050851703 0.09455997 -0.08792218 -0.087988764 0.03761576 0.01788269 0.009566828
-0.040458206 -0.036695164 -0.04560065 -0.07869684 0.008383235 0.024855182 0.007850056 0.030004906
0.08472249 0.023126064 -0.040678613 -0.031497955 -0.051760968 -0.06208719 -0.012480332 -0.018944161
0.051556826 -0.038521193 0.071099155 -0.05758262 -0.0009031534 0.07067936 0.08899592 -0.05058551
0.009076873 0.013764589 -0.04422623 -0.02559745 0.021900957 -0.0618226 0.01657394 0.040063057
-0.038662847 0.062475894 -0.009719337 0.039083797 0.08756855 -0.012186508 0.04895868 -0.030056188
-0.031710897 -0.008384999 -0.0060174367 -0.03396875 0.018046044 -0.015569975 0.06010395 -0.015742052
-0.00364751 -0.039779477 -0.07011597 0.035081584 0.003403274 -0.025433637 -0.037861954 0.018230317
-0.008937317 0.058871206 0.018198999 0.03232767 0.044875495 -0.013415736 0.046934884 0.0591234
-0.0005047316 0.023311965 0.0053108432 0.06139588 -0.02547198 -0.04177753 0.048019864 -0.07792095
-0.009196013 -0.03934156 0.081436746 -0.111614466 0.0641644 0.08255728 0.026792778 0.0065535605
0.085772015 -0.040708203 0.01185476 -0.037953723 -0.014248263 0.024867244 0.00037897 -0.016585387
-0.088659555 0.014438519 0.0053019137 0.016913773 0.06564001 0.0826014 -0.0499769 -0.02098186
-0.03869859 -0.07847352 -0.05305988 0.08276357 0.030335773 0.051315024 0.03669151 -0.08630502
0.01997678 0.07733176 -0.04023989 0.0793066 0.022831863 0.058710944 -0.020577908 0.037929114
00000000: f29a 8fbc 1fc1 bcbc 27b0 743d 72a5 ed3b
00000010: d846 27bd 8b3c b03d 77d8 a0bd 1650 fc3c
00000020: 17b7 89bd 7a0e eabc e3fe 413d 9c8d 14bd
00000030: 6893 873d 6702 8abd c6ef 8bbd e0c4 1dbd
00000040: 79f1 f138 5c7d b23d 9e82 60bd 2e68 b53c
00000050: 4651 a5bc 397c 8f3c f0dd 323d be66 81bd
00000060: ec9f a23c 8367 b33d b617 d5ba 4c82 9f3d
00000070: e5d8 e7bc 1a77 6a3d d2fa a1bd 4469 b2ba
00000080: 06ca b9bc 323a dd3c cae5 673c 04d3 5b3d
00000090: 861e 693b f177 083c b20f 453d a1e1 83b9
000000a0: 262d c53d a4cf 31bd 82a6 0a3c 8e6c b7bc
000000b0: 2da1 763c ee25 f23c 9bff 05bc b341 acbd
000000c0: 5c46 6b3d 7bfb 4e3d b91f 933d 0d01 c9bd
000000d0: 6d63 953d 98bd 283d 2639 543c 613e c6bd
000000e0: 5e20 a73d c9d5 03be 50e8 083a 0708 e13b
000000f0: f74c 0cbd 4144 153d 81f7 80bd 0653 ad3c
00000100: 3067 17bd 9218 7cbc c7e3 cf3b 0ef5 a23d
00000110: 1cb2 dfbc 2064 4d3d d765 e23c d2c3 01bd
00000120: d85a 70bd 3c9f 2abd 2496 a63d 8324 0fbc
00000130: a011 08bd 7d5d c03c 627e 1f3d 6b9b a33d
00000140: 1033 d23d d269 9cbd 38e7 e6bb bbf6 92bd
00000150: a6c5 6abd 569b 1ebc ee40 963d 1f70 f9bd
00000160: fa17 583d dc52 8fbc cdd5 86bc 5b7e 603d
00000170: c5c6 d1bc 8ce8 a23c 1daf 8cbd 8f23 683d
00000180: 07d8 a6bc bacf 77bd e575 fe3c 4e14 99bd
00000190: 88fd aebd 28a5 edbc 8eb7 cd3d d4dc fcbc
000001a0: cb4b a7bb 3aea 543d 4b67 a83d 72ec f5bc
000001b0: d609 25bc e8f4 04bd cd9a e3bd cb64 c9b9
000001c0: 8cf3 e53c a8cc 623d 3a92 c43c 49ee 233d
000001d0: f62f 0b3c f9c8 323d 63ba e538 6980 86bd
000001e0: ed77 9a3c e867 153d ebec b8bd a20d 623d
000001f0: 7603 c93c 5bc5 8abd a9c6 16bd ac80 5e3d
00000200: 9e9f 8ebd 0508 08bd f92f 633c 7238 b5bd
00000210: 7264 3e3d c297 2d3d e1fb 713d 4538 16bd
00000220: 8ab0 a63d e049 50bd a8a8 c13d 8b10 b4bd
00000230: 7433 b4bd fc12 1a3d b87e 923c 2fbe 1c3c
00000240: 81b7 25bd ab4d 16bd bfc7 3abd cf2b a1bd
00000250: d659 093c 189d cb3c 859d 003c d9cc f53c
00000260: fc82 ad3d df72 bd3c 9e9e 26bd 0004 01bd
00000270: 4f03 54bd 234f 7ebd 4e7a 4cbc c930 9bbc
00000280: 402d 533d 66c8 1dbd 6f9c 913d c1db 6bbd
00000290: 99c1 6cba 57c0 903d 7e43 b63d c032 4fbd
000002a0: 2ab7 143c df84 613c 9026 35bd beb1 d1bc
000002b0: a369 b33c b239 7dbd 12c6 873c 2919 243d
000002c0: ef5c 1ebd b9e6 7f3d db3d 1fbc 5516 203d
000002d0: 2457 b33d eba9 47bc e688 483d 6538 f6bc
000002e0: 49e3 01bd 3c61 09bc eb2d c5bb d122 0bbd
000002f0: 4cd5 933c 3519 7fbc 8f2f 763d 7af5 80bc
00000300: 100b 6fbb ceef 22bd f698 8fbd b5b1 0f3d
00000310: 7709 5f3b 345a d0bc 2315 1bbd bf57 953c
00000320: d36d 12bc ef22 713d 1116 953c 056a 043d
00000330: 5ecf 373d adcd 5bbc cb3e 403d 612b 723d
00000340: f74f 04ba bcf8 be3c 9506 ae3b 3f7a 7b3d
00000350: 9daa d0bc ea1e 2bbd 7ab0 443d 0595 9fbd
00000360: e0aa 16bc 9e24 21bd 4fc8 a63d 2096 e4bd
00000370: a068 833d cb13 a93d 877c db3c 40bf d63b
00000380: 3da9 af3d a5bd 26bd 783a 423c 5d75 1bbd
00000390: 8c71 69bc 64b6 cb3c 7eb0 c639 14de 87bc
000003a0: 2493 b5bd 8a8f 6c3c adbb ad3b c18e 8a3c
000003b0: 456e 863d ec2a a93d 94b4 4cbd 26e2 abbc
000003c0: 6a82 1ebd bab6 a0bd 5155 59bd f27f a93d
000003d0: ba82 f83c b42f 523d d649 163d b0c0 b0bd
000003e0: 58a6 a33c 1d60 9e3d 95d2 24bd 806b a23d
000003f0: e309 bb3c e37a 703d 0093 a8bc 8f5b 1b3d

fc2.bias f4 [64]
-0.0123709375 0.040125478 0.03499134 -0.019748883 -0.06500589 0.046304386 -0.06587507 0.030590449
0.0059626326 -0.046316896 -0.041739646 -0.007700551 0.10820415 -0.07173878 0.088584155 0.019217858
-0.052492626 0.019479753 -0.035237167 0.03479768 0.040708393 -0.07643433 -0.025570113 -0.023376327
0.06646288 -0.0912082 -0.055621788 0.08487878 0.04723704 0.05429273 0.036835674 -0.1226353
-0.0102539435 -0.028115133 0.10174648 0.028079825 -0.015074385 0.057566356 0.0757853 -0.082996696
-0.057624783 -0.07488677 0.0066181356 0.08722902 -0.0013490126 0.07599568 0.014504968 -0.062051695
-0.019321432 0.13361543 0.07350527 0.043705635 0.07101293 0.0742801 0.04704351 -0.014998843
-0.07115693 -0.06777122 -0.06730262 0.1032112 0.1177242 -0.050632875 0.10047782 -0.021075746
00000000: 79af 4abc 9d5a 243d 1453 0f3d 69c8 a1bc
00000010: cf21 85bd aba9 3d3d 82e9 86bd d298 fa3c
00000020: 3062 c33b c9b6 3dbd 31f7 2abd e754 fcbb
00000030: 239a dd3d c8eb 92bd 9c6b b53d c56e 9d3c
00000040: 8202 57bd 0194 9f3c d954 10bd 0388 0e3d
00000050: d8bd 263d 9a89 9cbd 6a78 d1bc b67f bfbc
00000060: b11d 883d 5dcb babd acd3 63bd edd4 ad3d
00000070: a07b 413d 0e62 5e3d 01e1 163d 3728 fbbd
00000080: 2800 28bc b551 e6bc 7560 d03d a907 e63c
00000090: 8efa 76bc b3ca 6b3d 5335 9b3d 2cfa a9bd
000000a0: f707 6cbd 3c5e 99bd f2dc d83b 21a5 b23d
000000b0: 5ad1 b0ba a0a3 9b3d 3fa6 6d3c eb29 7ebd
000000c0: fb47 9ebc 7cd2 083e ee89 963d ae04 333d
000000d0: 3a6f 913d 2a20 983d b2b0 403d b5bd 75bc
000000e0: b9ba 91bd a3cb 8abd f5d5 89bd 6560 d33d
000000f0: 6319 f13d 6b64 4fbd 51c7 cd3d 0ba7 acbc

bn2.weight f4 [64]
1.1419607 1.0975535 1.16291 1.3433114 1.255225 1.1563139 1.2986784 1.4949011
1.5171195 1.1757503 1.2213994 1.2226943 1.6256433 1.1713479 1.1943487 1.0595677
1.1249809 1.3363347 1.2163873 1.3043414 1.0837013 1.3068539 1.6883277 1.3002336
1.1665926 1.421142 1.2646846 1.0863489 1.1229887 1.1533542 1.1345811 1.312338
1.2238733 1.4696212 1.2306961 1.130039 1.1137146 1.1366017 1.1323118 1.1189443
1.1258725 1.4936174 1.2025919 1.4009135 1.2691288 1.1897825 1.1544538 1.3536627
1.0374684 1.4338133 1.3677164 1.3424002 1.3915013 1.1472715 1.1964996 1.4600323
1.1350421 1.1718856 1.3336754 1.1556855 1.4812425 1.3498384 1.3301013 1.1374062
00000000: c52b 923f a27c 8c3f 3cda 943f a1f1 ab3f
00000010: 36ab a03f 1802 943f 183b a63f eb58 bf3f
00000020: f930 c23f fc7e 963f d156 9c3f 3f81 9c3f
00000030: 1415 d03f baee 953f 6be0 983f ea9f 873f
00000040: 60ff 8f3f 040d ab3f 94b2 9b3f a9f4 a63f
00000050: b9b6 8a3f fd46 a73f 1f1b d83f 0e6e a63f
00000060: e852 953f fbe7 b53f 2fe1 a13f 7b0d 8b3f
00000070: 18be 8f3f 1ca1 933f f439 913f b1fa a73f
00000080: e1a7 9c3f 8c1c bc3f 7387 9d3f 1ea5 903f
00000090: 338e 8e3f 2a7c 913f 98ef 903f 9139 8f3f
000000a0: 971c 903f db2e bf3f 88ee 993f 2251 b33f
000000b0: d072 a23f cb4a 983f 24c5 933f d244 ad3f
000000c0: c4cb 843f 3287 b73f 5511 af3f c5d3 ab3f
000000d0: b71c b23f cbd9 923f e626 993f 57e2 ba3f
000000e0: 0f49 913f 5900 963f e0b5 aa3f 81ed 933f
000000f0: 5b99 bd3f 81c7 ac3f c240 aa3f 8796 913f

bn2.bias f4 [64]
-0.16756947 0.07829805 -0.16980068 -0.10360895 -0.16399705 0.12905988 -0.18659768 -0.06858939
0.14356565 -0.14456722 -0.16166633 0.1127769 0.19548354 -0.16468081 0.11241553 0.08645113
0.10802424 0.115390725 -0.16536996 0.1835276 0.102834806 0.056958385 -0.14745513 0.16509569
0.13118796 -0.1956252 -0.1281424 0.07016869 0.08616752 0.101422615 -0.15055306 -0.1732846
-0.15814228 0.08561247 -0.11507113 -0.06709615 -0.071481094 0.098138966 -0.10922637 0.0635975
-0.13821024 0.04667016 0.15530485 0.13898227 -0.1617331 0.13715738 0.07019177 -0.199377
0.05103151 0.15768218 -0.07277611 0.15600674 -0.10823205 -0.056988653 0.12398966 -0.10042669
-0.12888704 -0.12811147 0.15456623 0.13499503 -0.102918044 -0.15764242 -0.08189672 0.13367432
00000000: 5597 2bbe ba5a a03d 3be0 2dbe ee30 d4bd
00000010: d8ee 27be 4628 043e 7613 3fbe 9878 8cbd
00000020: e002 133e 6e09 14be dc8b 25be 93f7 e63d
00000030: d62c 483e 16a2 28be 1d3a e63d 4a0d b13d
00000040: d03b dd3d f951 ec3d be56 29be a9ee 3b3e
00000050: 0e9b d23d 324d 693d 7afe 16be d80e 293e
00000060: 2356 063e f951 48be c337 03be 9ab4 8f3d
00000070: 9978 b03d a9b6 cf3d 952a 1abe 8571 31be
00000080: 0df0 21be 9755 af3d 6aaa ebbd b569 89bd
00000090: ae64 92bd 15fd c83d 13b2 dfbd 683f 823d
000000a0: fc86 0dbe 3629 3f3d 3c08 1f3e 5e51 0e3e
000000b0: 5d9d 25be fc72 0c3e b4c0 8f3d 7c29 4cbe
000000c0: 6b06 513d 7077 213e a40b 95bd 3bc0 1f3e
000000d0: c4a8 ddbd ef6c 69bd 4aee fd3d 82ac cdbd
000000e0: f7fa 03be a72f 03be 9c46 1e3e 233c 0a3e
000000f0: b2c6 d2bd 046d 21be 78b9 a7bd ece1 083e

fc3.weight f4 [6, 64]
0.120071284 -0.10196057 0.074094266 0.09105177 0.12995045 -0.1668237 0.1728816 0.16770184
-0.24836206 0.057056446 0.23758076 -0.10134078 -0.25856492 0.025332464 -0.18924135 -0.028423063
-0.069692716 -0.09849706 0.18280253 -0.121259905 -0.024602419 -0.24263369 0.23178911 -0.1270475
-0.10483476 0.20583507 0.11111009 -0.1598503 -0.10793743 -0.19299519 0.11678201 0.23039535
0.18038167 -0.19587031 0.168019 0.018323015 0.08804557 -0.21305129 0.2465182 -0.17109337
0.13585582 -0.1303995 -0.14942728 -0.17776974 0.21431996 -0.21244687 -0.22079432 0.10443838
-0.08939592 -0.19048408 0.20981224 -0.10178634 0.19553411 0.13645574 -0.0989487 0.10063504
0.13422689 0.15657139 -0.13964397 -0.14674681 0.23163238 0.046796057 0.09769564 -0.22955252
0.13325381 -0.17001651 0.23019637 0.0644731 0.16959985 -0.066290304 0.22435364 0.17363213
-0.122802705 0.14416857 0.19533268 -0.144044 -0.21846266 0.20062941 -0.18204334 -0.010320302
-0.09920278 -0.0712217 0.15141328 -0.07017289 -0.03267415 -0.24093455 0.18817975 -0.19929886
-0.22496057 0.053140245 0.1310921 -0.05643804 -0.17686309 -0.09530468 0.14756516 0.04663792
0.16518785 -0.23312008 0.09599674 0.060854238 0.19984896 -0.20863423 0.15875857 -0.11803031
0.13388906 -0.11868263 -0.21180065 -0.18616305 0.16639179 -0.13487667 -0.17342031 0.1807309
-0.08373603 -0.2143291 0.21598426 -0.13372603 0.16968107 0.16768496 -0.16522591 0.16350192
0.20266992 0.15112898 -0.06750998 -0.08111791 0.23420906 0.22163954 0.17436413 -0.12610407
0.1731236 -0.041099235 0.18550326 0.16275541 0.1382901 -0.152202 0.20552956 0.17761406
-0.21696417 0.16598755 0.13235979 -0.1457527 -0.19758935 0.116273805 -0.1452759 -0.002585047
-0.16537191 -0.2099094 0.15662527 -0.09430605 -0.050840046 -0.15270835 0.12803207 -0.29877284
-0.19598146 0.16639903 0.088982545 -0.16846189 -0.07639487 -0.06763921 0.12774949 0.27202207
0.25010923 -0.21496874 0.21522467 0.12652534 0.16507445 -0.0888519 0.023447832 -0.028711272
0.16678181 -0.17065334 -0.108102255 -0.17333144 0.08562054 -0.13768828 -0.10350278 0.18990427
-0.008976855 -0.24691166 0.23739047 -0.14695464 0.13294849 0.06839108 -0.21325275 0.17180376
0.08536936 0.16638742 -0.291675 -0.14481185 0.2041675 0.06562081 0.2390199 -0.2019609
0.1006083 -0.068339884 0.2574827 0.1846822 0.21399808 -0.20977502 0.15270573 0.1458354
-0.22506624 0.16222452 0.18260996 -0.21402162 -0.1802665 0.120935544 -0.030382117 -0.1824511
-0.03545626 -0.12433828 0.1832619 -0.20240846 -0.16747041 -0.20177944 0.110304765 -0.17243159
-0.05602842 0.09416887 0.18967378 -0.19301197 -0.045826428 -0.20988922 0.06045059 0.24787207
0.070182495 -0.24193658 0.048405662 0.05194782 0.1817005 -0.072502784 0.043305606 -0.08688959
0.0038301754 -0.24870537 -0.1340626 -0.14960894 0.20393936 -0.11548873 -0.12571989 0.21432722
-0.08339493 -0.17919171 0.2697721 -0.12214319 0.21022354 0.073767155 -0.11328427 0.20229168
0.18013968 0.08369455 -0.24686663 -0.10218768 0.15100183 0.21561863 0.103172176 -0.1787855
00000000: efe7 f53d b4d0 d0bd bcbe 973d 5a79 ba3d
00000010: bb11 053e d5d3 2abe e007 313e 08ba 2b3e
00000020: a052 7ebe 05b4 693d 5f48 733e c18b cfbd
00000030: 9f62 84be 0786 cf3c 7cc8 41be 7cd7 e8bc
00000040: 0ebb 8ebd d4b8 c9bd 9630 3b3e 1d57 f8bd
00000050: 038b c9bc f774 78be 205a 6d3e bd18 02be
00000060: 9bb3 d6bd 6ec6 523e b08d e33d ccaf 23be
00000070: 4d0e ddbd 88a0 45be 682b ef3d c2ec 6b3e
00000080: f9b5 383e 3a92 48be 2c0d 2c3e 261a 963c
00000090: 3c51 b43d 1e2a 5abe 446f 7c3e 1a33 2fbe
000000a0: ca1d 0b3e 7287 05be 7703 19be 4509 36be
000000b0: b176 5b3e ac8b 59be e817 62be cae3 d53d
000000c0: 3515 b7bd 420e 43be 05d9 563e 5b75 d0bd
000000d0: 183a 483e 0ebb 0b3e 9ea5 cabd be19 ce3d
000000e0: c672 093e 4054 203e d4fe 0ebe cc44 16be
000000f0: 0a31 6d3e 39ad 3f3d a714 c83d d10f 6bbe
00000100: b073 083e cf18 2ebe 99b8 6b3e 790a 843d
00000110: 95ab 2d3e 36c3 87bd f6bc 653e 9fcc 313e
00000120: fc7f fbbd eda0 133e 4a05 483e 4580 13be
00000130: adb4 5fbe cc71 4d3e 9269 3abe 7c16 29bc
00000140: d42a cbbd afdc 91bd 150c 1b3e ceb6 8fbd
00000150: 54d5 05bd 8cb7 76be 31b2 403e 0015 4cbe
00000160: 105c 66be 96a9 593d 023d 063e 932b 67bd
00000170: 991b 35be 1a2f c3bd 521b 173e 6707 3f3d
00000180: 0127 293e 08b7 6ebe f099 c43d 4b42 793d
00000190: 35a5 4c3e 36a4 55be 9b91 223e e0b9 f1bd
000001a0: 371a 093e e10f f3bd 45e2 58be 87a1 3ebe
000001b0: 9c62 2a3e 1c1d 0abe 1895 31be 8511 393e
000001c0: cc7d abbd 1679 5bbe fa2a 5d3e 7aef 08be
000001d0: e0c0 2d3e 9bb5 2b3e fb30 29be 0c6d 273e
000001e0: b488 4f3e 8ec1 1a3e ac42 8abd 2621 a6bd
000001f0: 80d4 6f3e 7af5 623e 838c 323e 6d21 01be
00000200: 5047 313e ac57 28bd 91f4 3d3e 5ba9 263e
00000210: ec9b 0d3e d7da 1bbe 5776 523e 76e0 353e
00000220: db2b 5ebe a4f8 293e 5389 073e 3240 15be
00000230: dd54 4abe f620 ee3d 35c3 14be e469 29bb
00000240: 4157 29be 7df2 56be 6062 203e 8823 c1bd
00000250: a73d 50bd 945f 1cbe d71a 033e c1f8 98be
00000260: 5daf 48be 8264 2a3e 7b3c b63d 4681 2cbe
00000270: ea74 9cbd 6d86 8abd c3d0 023e 7a46 8b3e
00000280: 510e 803e c420 5cbe db63 5c3e dc8f 013e
00000290: 4709 293e fcf7 b5bd ab15 c03c e733 ebbc
000002a0: dac8 2a3e c0bf 2ebe b764 ddbd cc7d 31be
000002b0: d259 af3d 28fe 0cbe 44f9 d3bd 4476 423e
000002c0: a913 13bc 69d6 7cbe 7d16 733e 477b 16be
000002d0: a623 083e 9f10 8c3d ee5e 5abe 53ed 2f3e
000002e0: 22d6 ae3d 7761 2a3e 6d56 95be 8f49 14be
000002f0: 4911 513e 3464 863d a2c1 743e d7ce 4ebe
00000300: b90b ce3d c8f5 8bbd c6d4 833e 551d 3d3e
00000310: 5022 5b3e 43cf 56be e45e 1c3e e055 153e
00000320: c477 66be 2f1e 263e 1bfe 3a3e 7c28 5bbe
00000330: c897 38be 0ead f73d ebe3 f8bc 76d4 3abe
00000340: 953a 11bd 11a5 febd 02a9 3b3e 2a44 4fbe
00000350: 5d7d 2bbe 459f 4ebe 77e7 e13d e891 30be
00000360: 0e7e 65bd 9cdb c03d d839 423e eea4 45be
00000370: 7eb4 3bbd 33ed 56be 0a9b 773d 2dd2 7d3e
00000380: d7bb 8f3d 39be 77be 0445 463d 3dc7 543d
00000390: b20f 3a3e 577c 94bd 3861 313d 2bf3 b1bd
000003a0: ae03 7b3b 9fac 7ebe b547 09be 1633 19be
000003b0: 7bd5 503e 5b85 ecbd b7bc 00be 9878 5b3e
000003c0: f6ca aabd 087e 37be 921f 8a3e 3526 fabd
000003d0: d744 573e 3c13 973d 9501 e8bd 8d25 4f3e
000003e0: 8976 383e 0c68 ab3d 9bca 7cbe c647 d1bd
000003f0: 39a0 1a3e 21cb 5c3e ef4b d33d 8c13 37be

fc3.bias f4 [6]
-0.18234666 -0.13228314 -0.0440089 -0.15311715 -0.2268836 -0.18171205
00000000: 15b9 3abe 3b75 07be ad42 34bd beca 1cbe
00000010: 2d54 68be b912 3abe
