chkpts/checkpointfinal.pth (torch, 42239 bytes, 10 tensors)

fc1.weight f4 [128, 4]
0	0x3bffdc24	0.007808225
1	0x3e9cddd2	0.30637985
2	0xbed45fc7	-0.41479322
3	0xbeda2dee	-0.42613167
4	0xbe4b71fc	-0.198677
5	0x3e205a50	0.15659451
6	0xbc964221	-0.01834208
7	0x3f02afdc	0.5104959
8	0xbd0a8d6c	-0.033826277
9	0x3dbb79aa	0.09154065
10	0xbe0c92cb	-0.13727872
11	0xbdd4482e	-0.1036533
12	0xbef3add3	-0.47593555
13	0xbeaa6d95	-0.3328673
14	0xbe4bfb44	-0.19920069
15	0x3b046daa	0.0020206966
16	0x3e58f8d9	0.21188678
17	0x3e7de76f	0.24795316
18	0xbe9379aa	-0.2880376
19	0xbe94a30d	-0.29030648
20	0x3de93e5d	0.11388848
21	0x3f0dba36	0.5536226
22	0xbdc19324	-0.09451893
23	0x3f09d141	0.5383492
24	0x3c8d53cf	0.017251877
25	0x3d7c2076	0.061554395
26	0x3e7b999e	0.24570319
27	0xbf0ac537	-0.54207176
28	0xbed7867e	-0.42094797
29	0xbe24474e	-0.16042826
30	0xbe1fb5b8	-0.15596664
31	0x3f051a15	0.51992923
32	0xbe984739	-0.2974184
33	0xbe67dd9b	-0.2264313
34	0xbe9dd6f6	-0.30828065
35	0xbf076fe1	-0.5290509
36	0xbe48ff66	-0.19628677
37	0x3f17f4e2	0.59358037
38	0x3e28efc5	0.16497715
39	0x3e9b8563	0.30375203
40	0x3d8bb66c	0.068219036
41	0xbea2df48	-0.31810975
42	0x3d1664c4	0.03671719
43	0xbf0b7544	-0.5447581
44	0xbead6422	-0.33865458
45	0xbea9d84f	-0.33172843
46	0x3e8d0b56	0.2754771
47	0x3e83f663	0.25773916
48	0xbe3030d1	-0.17206122
49	0xbdd4ce12	-0.10390867
50	0x3e8313b6	0.25600976
51	0x3f0056a5	0.5013221
52	0x3e5c7578	0.21529186
53	0x3ddb6fa7	0.10714655
54	0x3e866bdb	0.26254162
55	0xbe7594a7	-0.23982488
56	0x3d3f016e	0.046632223
57	0xbeead7ce	-0.4586777
58	0xbeb0c555	-0.34525552
59	0xbe674467	-0.22584687
60	0x3e39c780	0.1814251
61	0x3e83da02	0.25752264
62	0xbe80a9de	-0.25129598
63	0xbbe116ff	-0.0068691964
64	0x3e903709	0.28166988
65	0xbdc1f150	-0.09469855
66	0x3c7b1f9b	0.01532736
67	0xbbcf3123	-0.006322996
68	0x3e855092	0.26038033
69	0x3ee5184c	0.447451
70	0xbebb22c1	-0.36549953
71	0xbe829c59	-0.2550991
72	0x3e10facc	0.14158171
73	0x3f10fa6e	0.56632125
74	0x3f180ebe	0.59397495
75	0x3ece8302	0.40334326
76	0x3dbeccc6	0.09316401
77	0xbef03e25	-0.46922413
78	0x3ca8cd04	0.020605572
79	0xbebfb203	-0.374405
80	0xbea25471	-0.3170505
81	0x3ece0a52	0.4024225
82	0x3e63e61c	0.22255749
83	0xbf115f39	-0.56785923
84	0x3d813af1	0.0631007
85	0xbdd0bc57	-0.10192173
86	0xbd9f1dad	-0.07769332
87	0xbea78ce7	-0.32724687
88	0x3e2a90b8	0.16656768
89	0xbe90ca57	-0.28279373
90	0x3de62e6b	0.11239322
91	0x3e8c6950	0.27424097
92	0x3eb16995	0.34650865
93	0x3e7421e8	0.23841059
94	0xbeeefac4	-0.46675694
95	0xbf04e95c	-0.5191858
96	0x3e4c7f45	0.19970424
97	0x3e13d74c	0.14437598
98	0xbec59c67	-0.38595888
99	0xbeaee00c	-0.3415531
100	0x3eeba1df	0.46021935
101	0x3f1ca32a	0.6118647
102	0xbe3c90ef	-0.18414663
103	0xbdd53eea	-0.104123905
104	0xbe9c4ae5	-0.3052589
105	0x3b30375d	0.0026888468
106	0xbebec860	-0.3726225
107	0xbeadfa63	-0.33980092
108	0xbc80d845	-0.015728125
109	0xbbc16b21	-0.0059026633
110	0xbe4140d1	-0.18872382
111	0x3ec25257	0.37953445
112	0xbea53c23	-0.32272443
113	0x3f0e1f25	0.5551627
114	0x3eb2d969	0.34931496
115	0xbeab7bd7	-0.3349292
116	0xbdd15e1a	-0.102230266
117	0xbc36fde6	-0.011168933
118	0x3d64741b	0.05577479
119	0x3dbedf9b	0.09319993
120	0x3e35c0e4	0.17749363
121	0x3dd7b6c5	0.105329074
122	0xbe3de808	-0.18545544
123	0x3e7f7bb8	0.24949539
124	0xbed25375	-0.41079298
125	0xbe8f0e55	-0.27940622
126	0xbe037330	-0.1283691
127	0xbe85d5a4	-0.26139557
128	0xbdfcf6c5	-0.12351755
129	0xbf03bc05	-0.5145877
130	0xbddb6d90	-0.10714257
131	0x3df7a719	0.12092418
132	0xbe88394d	-0.26606217
133	0x3d0acc0d	0.033886004
134	0x3e9251ce	0.28578037
135	0xbd566cac	-0.05234973
136	0xbabdd74f	-0.0014483723
137	0x3ac6080f	0.0015108603
138	0x3d90ff27	0.070799164
139	0x3ec60947	0.38678953
140	0x3eeff0ed	0.468635
141	0x3e7e15a7	0.24812947
142	0x3ee40f33	0.44542846
143	0xbce8c880	-0.028415918
144	0xbedcb0da	-0.43103677
145	0xbedd314b	-0.4320167
146	0x3ea0d88b	0.3141521
147	0xbe098df4	-0.13433057
148	0xbe3578d3	-0.17721872
149	0xbf0c9829	-0.5491968
150	0xbf0384bb	-0.51374406
151	0xbede36d8	-0.43401217
152	0xbda13c68	-0.0787285
153	0x3e5a3cd1	0.21312262
154	0x3e2aa29e	0.16663596
155	0xbf09f921	-0.53895766
156	0x3e9a735f	0.30166146
157	0xbedbc1e5	-0.42921367
158	0xbd965bdb	-0.07341739
159	0xbea932e0	-0.33046627
160	0xbe06629c	-0.13123554
161	0xbdfec77a	-0.12440391
162	0xbf029a49	-0.5101667
163	0xbedb61a1	-0.42847922
164	0xbd6950a5	-0.056961674
165	0x3d83f0a7	0.06442385
166	0xbe61bb19	-0.22044028
167	0x3e000094	0.1250022
168	0xbeaecd88	-0.34141183
169	0xbddfb63c	-0.1092343
170	0x3e9efdac	0.3105291
171	0xbeb3eaaf	-0.35139987
172	0x3eb7dd89	0.35911205
173	0x3d6ef7cd	0.05834179
174	0xbeefe7ad	-0.46856442
175	0x3e336dcc	0.17522353
176	0xbd3f546b	-0.046711367
177	0xbea18278	-0.31544852
178	0x3ecf0ac6	0.40437907
179	0xbee71ff3	-0.45141563
180	0x3d382fa7	0.04496732
181	0xbdea34a4	-0.11435822
182	0x3ebd44e7	0.3696663
183	0x3dec74c5	0.115457095
184	0x3e4e220a	0.20130172
185	0x3e034571	0.12819459
186	0xbdd40730	-0.103529334
187	0xbe15d816	-0.14633211
188	0xbeba3fd6	-0.36376828
189	0x3e8b4fef	0.27209422
190	0x3e6c6936	0.2308701
191	0x3ef867ae	0.485166
192	0xbe8da6fb	-0.27666458
193	0xbbfcf91a	-0.007720125
194	0xbeadafd8	-0.3392322
195	0xbe982662	-0.29716784
196	0xbe8689a0	-0.26276875
197	0x3e47633c	0.19471449
198	0xbe948656	-0.2900874
199	0x3b20aff0	0.002451893
200	0x3c011737	0.00787907
201	0x3ebba2cd	0.36647645
202	0xbeb7e882	-0.35919577
203	0xbed000d4	-0.40625632
204	0xbec100a5	-0.37695804
205	0x3ed000fa	0.40625745
206	0xbe1847ba	-0.14871112
207	0x3f02e2d3	0.51127356
208	0x3e371950	0.1788075
209	0x3d15e813	0.036598276
210	0xbc06923d	-0.008213577
211	0xbe3ced8c	-0.18449992
212	0x3d7fb3d9	0.062427375
213	0xbd9da4b4	-0.0769743
214	0xbbfe8919	-0.007767808
215	0x3df64dbb	0.12026545
216	0xbe9073d9	-0.28213385
217	0xbe67527b	-0.22590058
218	0x3e9e30a3	0.30896482
219	0xbeb7b1ec	-0.3587793
220	0xbc256e8b	-0.010097156
221	0x3f061fac	0.5239208
222	0x3df8dc19	0.12151355
223	0x3c53b83b	0.012922342
224	0xbec14450	-0.3774743
225	0x3eadfef9	0.3398359
226	0xbe9d7924	-0.30756485
227	0xbe4f271b	-0.20229761
228	0xbe234d43	-0.15947442
229	0xbd7b5b8d	-0.061366607
230	0xbb2033e6	-0.0024444996
231	0x3f03cb5c	0.51482177
232	0x3ca052ce	0.019570734
233	0x3f04e122	0.51906025
234	0x3ea2070a	0.31645995
235	0xbe8fd36c	-0.2809099
236	0x3e230f32	0.15923765
237	0xbf0c6eab	-0.54856366
238	0xbe67c8ce	-0.22635195
239	0x3da3bbe2	0.0799482
240	0x3e2904e8	0.16505778
241	0x3ed0559b	0.40690312
242	0xbe0cea83	-0.13761334
243	0xbd318b9e	-0.04334604
244	0x3e6b9267	0.23005067
245	0xbf032023	-0.5122091
246	0x3ea01cae	0.3127188
247	0xbed49f03	-0.41527566
248	0x3c99e222	0.018784586
249	0xbd5c6135	-0.05380364
250	0xbe76298b	-0.24039285
251	0xbcb2f1b6	-0.021843772
252	0x3eae5051	0.34045652
253	0xbe0081d9	-0.12549533
254	0xbe4e3a92	-0.2013953
255	0xbe8fbaa0	-0.2807207

fc1.bias f4 [128]
0	0xbdb01d17	-0.085992984
1	0xbe2caab8	-0.16861999
2	0x3e0f4d27	0.13994275
3	0x3e13051d	0.1435742
4	0xbeaa03bd	-0.33205977
5	0x3dfecbc4	0.12441209
6	0x3ed6f28a	0.41981918
7	0xbd586320	-0.052828908
8	0xbd9c4f56	-0.0763232
9	0xbdc5362c	-0.09629473
10	0x3e10e3bb	0.14149372
11	0xbebd5db7	-0.3698556
12	0xbebf9d5c	-0.37424743
13	0xbeae86ee	-0.34087318
14	0x3ebf2377	0.37331745
15	0xbeb8b241	-0.36073497
16	0xbc8f5e51	-0.017501028
17	0xbe6c3083	-0.23065381
18	0x3f544a23	0.82925624
19	0x3f3053e5	0.6887801
20	0xbed703b1	-0.41995004
21	0xbefb015a	-0.4902447
22	0xbeb53229	-0.35389832
23	0x3b80ef3d	0.0039347694
24	0xbe99a0de	-0.30005544
25	0xbe94368e	-0.28947872
26	0xbec37785	-0.38177124
27	0x3d8fe496	0.07026021
28	0xbe39f85e	-0.18161151
29	0x3d258bc3	0.04041649
30	0xbe18a111	-0.14905192
31	0xbec0f14c	-0.37684095
32	0x3d3207f2	0.04346461
33	0x3e99e521	0.30057624
34	0xbe9105af	-0.2832465
35	0xbd8a6abc	-0.06758639
36	0xbeea2e43	-0.4573842
37	0x3f0a166a	0.5394045
38	0xbf09d53f	-0.5384101
39	0xbf2291c7	-0.6350369
40	0x3f145851	0.5794726
41	0xbe813c24	-0.25241196
42	0xbe118f30	-0.14214778
43	0xbe4d20e1	-0.20032074
44	0xbd32eb69	-0.043681536
45	0xbe1e303a	-0.15448084
46	0x3e7c97a5	0.24667223
47	0xbd870a07	-0.065937094
48	0xbf14f71c	-0.5818956
49	0xbe8348da	-0.2564152
50	0xbe4c928e	-0.19977781
51	0x3ea118f1	0.3146434
52	0xbee5a679	-0.4485357
53	0x3f04dcf1	0.5189963
54	0xbea29cf6	-0.31760377
55	0xbd6eed90	-0.058332026
56	0x3eaf99ea	0.34297115
57	0x3e9e71ca	0.3094619
58	0x3eac4b9a	0.3365143
59	0x3d65fcd0	0.056149304
60	0xbe60004b	-0.21875112
61	0xbee63270	-0.44960356
62	0xbdf45729	-0.11930687
63	0x3edafc77	0.4277074
64	0xbd7c51cb	-0.06160144
65	0xbecd7581	-0.4012871
66	0x3e77796a	0.2416741
67	0x3f01f103	0.5075838
68	0xbe4b5e03	-0.19860081
69	0xbeda523d	-0.42640868
70	0xbf0e5c56	-0.55609643
71	0x3e26384f	0.16232418
72	0x3b8770b6	0.0041333092
73	0xbe8c56e5	-0.27410045
74	0x3def1e9b	0.116757594
75	0x3e088294	0.13331062
76	0x3ef50dc4	0.47862065
77	0x3ed8f432	0.42373806
78	0xbd49ab47	-0.04923561
79	0xbee01896	-0.43768758
80	0xbf2292c9	-0.63505226
81	0x3e87535f	0.26430795
82	0x3e98d103	0.29846963
83	0x3e6d7d76	0.23192391
84	0xbdfaeacf	-0.122518174
85	0x3f0ae744	0.54259133
86	0x3e86f5d7	0.26359436
87	0x3f16624e	0.5874375
88	0xbefb9171	-0.491344
89	0xbeae8d3d	-0.3409213
90	0xbed6869b	-0.4189957
91	0x3efa66e2	0.48906618
92	0xbe494298	-0.1965431
93	0xbe9ff020	-0.31237888
94	0x3e9aa745	0.30205742
95	0xbea6e572	-0.32596928
96	0xbe5ce4c4	-0.21571642
97	0xbd9a7903	-0.075426124
98	0xbcdab9f4	-0.026699997
99	0xbeda2729	-0.42608002
100	0x3ec642cd	0.3872284
101	0xbd921ab6	-0.07134001
102	0x3e58a00e	0.21154806
103	0x3eef94d8	0.46793246
104	0x3e8fa32d	0.2805418
105	0xbcb6abc1	-0.022298696
106	0x3eea23b9	0.4573038
107	0x3d01e0e2	0.031708606
108	0xbe95fc14	-0.29293883
109	0x3f0da73d	0.5533331
110	0x3dba7d58	0.09105939
111	0xbeefa9f5	-0.46809354
112	0xbe0d407a	-0.13794127
113	0xbe9a2585	-0.3010675
114	0x3ed79618	0.421067
115	0xbe954994	-0.29157698
116	0xbf11a770	-0.56896114
117	0xbd58e6ab	-0.052954357
118	0x3e718d86	0.23589143
119	0x3d97ab8a	0.07405765
120	0x3e87b2c0	0.26503563
121	0xbcb2cbaf	-0.02182564
122	0x3e764931	0.24051358
123	0xbe3f3b62	-0.18674996
124	0xbe9afd7c	-0.30271518
125	0xbea385c2	-0.31937987
126	0xbf057b88	-0.5214162
127	0x3e85fadb	0.2616795

bn1.weight f4 [128]
0	0x3f89ee6a	1.0775883
1	0x3f9960a8	1.1982622
2	0x3f77f1fe	0.96853626
3	0x3f873388	1.0562601
4	0x3f73ecef	0.95283407
5	0x3f875d60	1.0575371
6	0x3f7570e5	0.9587539
7	0x3f95d718	1.1706266
8	0x3f7dc0e7	0.9912247
9	0x3f774fe2	0.96606266
10	0x3f831596	1.0240963
11	0x3f80e046	1.0068443
12	0x3f76d02c	0.96411395
13	0x3f6b5009	0.91919
14	0x3f7bd599	0.983728
15	0x3f77fa56	0.9686636
16	0x3f812cfa	1.0091851
17	0x3f721e3a	0.9457737
18	0x3fa146ff	1.2599791
19	0x3f897acb	1.0740598
20	0x3f6636b0	0.89927197
21	0x3f9056d4	1.1276498
22	0x3f76581b	0.9622819
23	0x3f865b96	1.04967
24	0x3f80159b	1.0006593
25	0x3f7eebeb	0.9957873
26	0x3f68a6c0	0.9087944
27	0x3f8135e5	1.0094572
28	0x3f94474f	1.1584262
29	0x3f78e0cd	0.9721802
30	0x3f79d0bd	0.97584134
31	0x3f85617a	1.0420372
32	0x3f7e0c8a	0.99237883
33	0x3f7e2b91	0.9928523
34	0x3f8159b0	1.0105495
35	0x3f827410	1.019167
36	0x3f906a73	1.1282486
37	0x3f859d24	1.043858
38	0x3f7e6e47	0.9938702
39	0x3f8435e0	1.0328941
40	0x3f93811e	1.1523778
41	0x3f798a2a	0.97476447
42	0x3f8158b9	1.0105201
43	0x3f73e3ad	0.9526928
44	0x3f90912d	1.1294304
45	0x3f83a6e4	1.0285306
46	0x3f746c7c	0.95478034
47	0x3f7c39f8	0.98525953
48	0x3f76de16	0.96432626
49	0x3f7ced19	0.9879928
50	0x3f85a07f	1.0439605
51	0x3fa95ec8	1.323205
52	0x3f81d5dd	1.0143391
53	0x3f840d1e	1.0316503
54	0x3f7a43a8	0.97759485
55	0x3f77dd1f	0.9682178
56	0x3f8140e4	1.0097928
57	0x3fa4eff2	1.2885725
58	0x3f83034d	1.0235382
59	0x3f7dee11	0.99191386
60	0x3f7b755e	0.98225963
61	0x3f6c349a	0.92267764
62	0x3f776b78	0.9664836
63	0x3f65e4a4	0.89802
64	0x3f7bb166	0.98317564
65	0x3f754de6	0.9582199
66	0x3f807943	1.0037006
67	0x3f7dae69	0.99094254
68	0x3f8286ff	1.0197448
69	0x3f95afcf	1.1694278
70	0x3f8c33c8	1.0953302
71	0x3f81e8de	1.014919
72	0x3f794003	0.973633
73	0x3f8569d3	1.042292
74	0x3f6e2834	0.93030095
75	0x3f6f163d	0.9339331
76	0x3f8ae6fa	1.0851738
77	0x3f7ded3e	0.9919013
78	0x3f72fdc0	0.9491844
79	0x3f79d45e	0.9758967
80	0x3f86b21a	1.0523102
81	0x3f829bd3	1.0203804
82	0x3f89984e	1.0749605
83	0x3f7fec93	0.9997036
84	0x3f6fcdf5	0.9367364
85	0x3f871cec	1.0555701
86	0x3f7dfb59	0.9921165
87	0x3f927606	1.1442268
88	0x3f7fc8aa	0.99915564
89	0x3f8046e3	1.0021633
90	0x3f77e9fc	0.96841407
91	0x3f8f94ce	1.1217287
92	0x3f82b076	1.0210102
93	0x3f7a18f3	0.9769432
94	0x3f7e185d	0.99255925
95	0x3f76a58d	0.9634636
96	0x3f80cf40	1.0063248
97	0x3f759e1f	0.959444
98	0x3f70260c	0.93808055
99	0x3f85f55f	1.0465506
100	0x3f89d2e7	1.0767487
101	0x3f8ae3b6	1.0850742
102	0x3f761043	0.96118563
103	0x3f80e229	1.0069019
104	0x3f8d5b59	1.1043502
105	0x3f776ac8	0.9664731
106	0x3f912b49	1.1341335
107	0x3f7bf331	0.98417956
108	0x3f78d399	0.9719787
109	0x3f8308d7	1.0237073
110	0x3f939c33	1.1532043
111	0x3f7dd922	0.99159443
112	0x3f88c91a	1.0686371
113	0x3f87de1e	1.061466
114	0x3f86da33	1.0535339
115	0x3f8f7354	1.120707
116	0x3f87882b	1.058843
117	0x3f736ed2	0.95090973
118	0x3f8cd6db	1.1003069
119	0x3f814640	1.0099564
120	0x3f7336da	0.9500557
121	0x3f89eda5	1.0775648
122	0x3f81f13c	1.0151744
123	0x3f7616d6	0.96128595
124	0x3f8be6dc	1.0929828
125	0x3f7a1d1c	0.9770067
126	0x3f719f71	0.94383913
127	0x3f8977c4	1.0739675

bn1.bias f4 [128]
0	0x3d479351	0.048724476
1	0x3c99936a	0.01874705
2	0xbc836b68	-0.016042426
3	0x3cbc377b	0.022975674
4	0xbd03146f	-0.03200191
5	0x3d817aa2	0.063222185
6	0x3dde0bd2	0.10842098
7	0xbc505b99	-0.012717151
8	0xbdadee04	-0.084926635
9	0x3d8a4408	0.06751257
10	0xbc001087	-0.00781644
11	0x3c76aa53	0.015055257
12	0x3d9644c9	0.073373385
13	0xbcadb882	-0.021206144
14	0xbdaa8537	-0.0832619
15	0xbdb72bf7	-0.089439325
16	0xbc91c4bf	-0.017794011
17	0x3d5ec2c6	0.05438497
18	0x3e46ea4f	0.19425319
19	0x3d370208	0.04467967
20	0x3dcaf7c2	0.09910537
21	0xbd262b1b	-0.040568452
22	0x3c25a4b2	0.010110067
23	0x3c80c8aa	0.015720684
24	0xbde7a183	-0.11310103
25	0x3e0b8842	0.13626197
26	0xbdc2b666	-0.09507446
27	0xbcfabed5	-0.030608574
28	0x3de87aff	0.11351585
29	0xbcf91b4f	-0.03040853
30	0x3c9960ea	0.01872297
31	0x3cfded02	0.030996803
32	0xbd46d5a0	-0.048543572
33	0x3d019543	0.031636488
34	0x3d191a00	0.03737831
35	0xbcd80d02	-0.02637339
36	0xbdae6263	-0.085148595
37	0x3d0aa0fc	0.033844933
38	0xbcccc1c3	-0.024994737
39	0x3bff655e	0.0077940663
40	0x3d163715	0.036673624
41	0x3d13872d	0.036017586
42	0x3ca5e7f0	0.020252198
43	0xbdfbedb4	-0.12301198
44	0x3d5a7da4	0.053342476
45	0x3d6e0761	0.058112506
46	0x3bd4e504	0.0064970274
47	0x3d3f3ee3	0.046690833
48	0xbd3cd30c	-0.046099707
49	0x3c90eb51	0.017690333
50	0x3c0d6c4d	0.008631778
51	0xbcf593a4	-0.029977627
52	0x3ca2f3bb	0.01989161
53	0x3c87a8b7	0.016559942
54	0xbcb6cb14	-0.022313632
55	0x3d5aaa73	0.05338521
56	0x3d08d88f	0.03340965
57	0x3cae02b9	0.021241533
58	0xbcc6ab3a	-0.024251569
59	0xbe036dab	-0.12834804
60	0xbd2ed236	-0.04268094
61	0x3bc02fe8	0.005865086
62	0x3b94dfc4	0.0045432765
63	0xbc9582bf	-0.018250821
64	0x3d3921ec	0.045198366
65	0x3d46dded	0.04855149
66	0xbc7caa70	-0.015421495
67	0x3cdba82f	0.026813595
68	0x3d9b5af3	0.075857066
69	0x3c0f4de2	0.008746596
70	0xbd73bed0	-0.059508145
71	0xbbe3bdef	-0.006950132
72	0x3cace6e6	0.021106195
73	0xbc06d391	-0.008229152
74	0x3db0233c	0.086004704
75	0x3a4d510d	0.0007832207
76	0x3cde190b	0.02711155
77	0x3d874dad	0.06606612
78	0x3d82528e	0.06363402
79	0x3c145c30	0.009055182
80	0xbe03bed1	-0.1286576
81	0xbdb380c8	-0.087647974
82	0x3ded18a0	0.115769625
83	0xbd1c2dc7	-0.038129594
84	0x3d82f96d	0.063952304
85	0x3de1b1c0	0.11020231
86	0xbdbef9bd	-0.093249775
87	0xbc01ee75	-0.007930388
88	0x3c48f5b3	0.0122656105
89	0xbd63dc8a	-0.055630244
90	0xbcd69428	-0.026193693
91	0x3dca163d	0.09867523
92	0x3c58e275	0.013237585
93	0xbb8cb712	-0.0042942846
94	0xbc275cbd	-0.010214982
95	0xbd2bccd1	-0.041943375
96	0x3d0a1378	0.033709973
97	0xbc980713	-0.01855806
98	0xbd02a025	-0.031891007
99	0x3a91599d	0.0011089329
100	0x3daf74a0	0.08567166
101	0x3dbd0622	0.09229685
102	0x3c35ce75	0.0110965865
103	0x3e0dc010	0.13842797
104	0x3d45bfbd	0.04827856
105	0x3c7d84f2	0.015473591
106	0x3c076926	0.008264815
107	0xbc668a32	-0.014071034
108	0xbc729b86	-0.0148075875
109	0x3dc26a90	0.094929814
110	0xbd8ec288	-0.06970698
111	0xbb1a1411	-0.0023510496
112	0x3d34f857	0.044182148
113	0x3da1e800	0.079055786
114	0xbd23144e	-0.039814286
115	0xbd94ac2b	-0.07259401
116	0xbcc1d459	-0.023660826
117	0xbc905fb5	-0.017623762
118	0x3cf84530	0.030306429
119	0xbcca1aa6	-0.02467091
120	0x3d9b06c7	0.07569652
121	0xbc91bee4	-0.017791219
122	0x3b4cf4e0	0.0031273887
123	0xbb26680f	-0.0025391614
124	0xbdc2cc33	-0.09511604
125	0x3da9084e	0.08253537
126	0xbc8e28c0	-0.017353415
127	0x3ce5f7ee	0.028072324

fc2.weight f4 [64, 128]
0	0xbcbf875d	-0.023379976
1	0xbc1394be	-0.009007631
2	0x3d7b9720	0.06142342
3	0x3bbdfd8f	0.005798049
4	0xbd3ade4f	-0.045622166
5	0x3de7d315	0.113195576
6	0xbda01308	-0.0781613
7	0x3aa9b469	0.0012947443
8	0xbd7a6ead	-0.061140705
9	0xbc90f23c	-0.017693631
10	0x3c4359a1	0.011923225
11	0xbcf0ac6a	-0.029379088
12	0x3d9cf3a7	0.076636605
13	0xbd842181	-0.06451703
14	0xbd97c172	-0.07409944
15	0xbcfcbec8	-0.03085269
16	0xbb87af14	-0.004140744
17	0x3da778c7	0.08177333
18	0xbd7e77d1	-0.062125985
19	0xbc6423d6	-0.01392456
20	0xbb8a8ec9	-0.004228447
21	0xbbe77c55	-0.007064382
22	0x3d1a4b8b	0.0376697
23	0xbd99d479	-0.07511229
24	0x3c9137ee	0.017726865
25	0x3db1e9e6	0.08687191
26	0x3bd0f965	0.0063773864
27	0x3da8ebf2	0.08248128
28	0xbd0a1181	-0.0337081
29	0x3d7f258a	0.06229166
30	0xbda8ea1b	-0.08247777
31	0xbb8604ad	-0.004089913
32	0xbd3b0fc9	-0.04566935
33	0x3c94f69a	0.018183995
34	0x3cf8a41b	0.03035169
35	0x3d55d7f9	0.05220792
36	0x3c145787	0.009054071
37	0x3cc93539	0.024561511
38	0x3d3622c9	0.044466767
39	0xbc1f2b0a	-0.009714851
40	0x3dd5f528	0.104471505
41	0xbd194f45	-0.037429113
42	0x3ada63b5	0.0016661795
43	0xbc8f45fa	-0.017489422
44	0xbbb80f97	-0.005617093
45	0x3cd8ce0e	0.026465442
46	0xbc83f1fd	-0.0161066
47	0xbd8bb798	-0.06822127
48	0x3d859007	0.06521612
49	0x3d6cf2d1	0.057848755
50	0x3d80348b	0.06260022
51	0xbdcf6148	-0.10125977
52	0x3d9554b0	0.072915435
53	0x3d005c17	0.031337824
54	0x3c6fabf5	0.0146284
55	0xbdc002be	-0.09375523
56	0x3db89d06	0.09014325
57	0xbe0280cb	-0.12744443
58	0xbbde7f9a	-0.0067901136
59	0x3c22bff9	0.009933465
60	0xbccad13d	-0.024757976
61	0x3d05c157	0.032655086
62	0xbd7e56d7	-0.062094536
63	0x3c536c68	0.012904264
64	0xbcd15a94	-0.025555886
65	0x3b8588c1	0.00407514
66	0xbbc5d56a	-0.006037404
67	0x3d97fbca	0.07421072
68	0xbc8906c8	-0.016726866
69	0x3d26a6b0	0.04068631
70	0x3cf411fe	0.029793736
71	0xbc8caa8f	-0.017171172
72	0xbd68cf7d	-0.0568385
73	0xbd64e9d3	-0.055887055
74	0x3d969d70	0.073542476
75	0xbbfeb657	-0.0077732014
76	0xbd1ef253	-0.038805317
77	0x3c7a2855	0.015268405
78	0x3d1d4188	0.038392574
79	0x3db24bb4	0.087058455
80	0x3dde6f9f	0.10861134
81	0xbda2081f	-0.07911705
82	0xbd060256	-0.03271707
83	0xbd93cf6d	-0.07217298
84	0xbd95a30a	-0.07306488
85	0xbc282aed	-0.010264141
86	0x3da9a89a	0.08284111
87	0xbdf9cb50	-0.12196982
88	0x3d88b627	0.06675368
89	0xbc697980	-0.014250159
90	0xbd08f4fb	-0.033436757
91	0x3d9e272e	0.07722317
92	0xbd142fde	-0.036178462
93	0x3d0a8cf6	0.033825837
94	0xbd9d296b	-0.076739155
95	0x3d37ea43	0.044901144
96	0xbce32a54	-0.027730145
97	0xbd4eb191	-0.05046231
98	0x3c96e347	0.018418921
99	0xbd8e1dd5	-0.06939284
100	0xbdb7f918	-0.08983058
101	0xbcfec020	-0.031097472
102	0x3dd98ce7	0.10622578
103	0xbd2d76b4	-0.042349532
104	0x3c1ebb02	0.009688141
105	0x3d28ba25	0.041193146
106	0x3d4985c8	0.04919985
107	0xbce28f2f	-0.027656166
108	0xbc2d18e4	-0.010565016
109	0xbd42d985	-0.047570724
110	0xbe0bbd68	-0.13646472
111	0x3c6db9cb	0.0145096285
112	0x3d133bfc	0.035945877
113	0x3d5a5d1e	0.05331146
114	0x3cb4c842	0.022068147
115	0x3d2e19a3	0.042504918
116	0x3c8e8bb4	0.0174006
117	0x3d5a80e9	0.053345595
118	0x3b7ec82b	0.0038876634
119	0xbd82a29e	-0.06378673
120	0x3c21ba34	0.009871054
121	0x3d1eba33	0.038751792
122	0xbdcebd94	-0.10094753
123	0x3d5961f4	0.05307193
124	0x3d222a0a	0.039590873
125	0xbd596044	-0.05307032
126	0xbd439740	-0.047751665
127	0x3d9578e2	0.07298447
128	0xbd9c93ff	-0.076454155
129	0xbd423bca	-0.0474203
130	0x3c03f950	0.008055046
131	0xbdbc0e48	-0.091824114
132	0x3d494291	0.04913575
133	0x3d8bcfd1	0.06826747
134	0x3d498704	0.049201027
135	0xbd9bbc49	-0.07604272
136	0x3d83dd9d	0.06438754
137	0xbd670d23	-0.056409013
138	0x3d98b7c8	0.074569285
139	0xbd9722a1	-0.07379652
140	0xbd960886	-0.073258445
141	0x3d2d6e87	0.042341735
142	0x3ca2393c	0.019802682
143	0x3c1bd6f9	0.009511703
144	0xbd30d681	-0.043173317
145	0xbd2dec20	-0.042461514
146	0xbce74787	-0.02823235
147	0xbdc4a90b	-0.09602555
148	0x3cb27b97	0.021787448
149	0x3d2380b7	0.039917674
150	0x3c034182	0.008011224
151	0x3c7e73af	0.015530511
152	0x3daa1a18	0.08305758
153	0x3ce7be51	0.028288992
154	0xbd4fd967	-0.05074444
155	0xbccff919	-0.025387334
156	0xbd68e82a	-0.056862034
157	0xbd782ffe	-0.060592644
158	0xbc504b1b	-0.012713219
159	0xbd153afa	-0.036433198
160	0x3d5d7fdb	0.05407701
161	0xbd09fd14	-0.03368862
162	0x3db11000	0.0864563
163	0xbd9605fe	-0.07325362
164	0x3c541138	0.012943558
165	0x3db2fcfd	0.0873966
166	0x3da363bb	0.079780065
167	0xbcbf9a14	-0.0233889
168	0x3cd31395	0.025766173
169	0x3c9d8c54	0.019231953
170	0xbcf199a2	-0.029492203
171	0xbd24996d	-0.04018538
172	0x3b9937a0	0.0046758205
173	0xbd962dac	-0.0733293
174	0x3c50a929	0.012735643
175	0x3d3481a2	0.04406894
176	0xbd44c6d5	-0.048041184
177	0x3d960a14	0.07326141
178	0xbc54458f	-0.012956037
179	0xbc125948	-0.008932419
180	0x3dd5a19b	0.104312144
181	0xbcf83c85	-0.030302295
182	0x3d526ca9	0.051373158
183	0xbd3da62c	-0.046301052
184	0xbca1bc1c	-0.019743018
185	0xbd23eb1c	-0.04001914
186	0xbcbbec6c	-0.022939883
187	0xbcd6b1e3	-0.02620787
188	0x3cc41f5d	0.023940736
189	0x3bb1c048	0.005424533
190	0x3d858a4d	0.065205194
191	0xbcc62d96	-0.024191659
192	0x38392a77	4.4146986e-05
193	0xbcdf6386	-0.027269136
194	0xbda53c72	-0.0806817
195	0x3d0b52c4	0.03401448
196	0xbb858c6a	-0.0040755766
197	0xbd0b3e9e	-0.033995263
198	0xbbb18cfb	-0.0054184175
199	0x3cf66400	0.03007698
200	0xbafbb08d	-0.0019202397
201	0x3d8b582e	0.06803928
202	0x3c4cea3b	0.012507017
203	0x3d1af213	0.037828516
204	0x3d8209b7	0.06349509
205	0xbd0518b3	-0.032494258
206	0x3d531776	0.051536046
207	0x3d9a547f	0.075356476
208	0x3c9cc52f	0.019136993
209	0x3c5049a1	0.012712867
210	0xbbbaa503	-0.0056959405
211	0x3d5fad74	0.054608777
212	0xbd116460	-0.035496116
213	0xbd6aff7d	-0.05737256
214	0x3d184efe	0.037184708
215	0xbde7edb6	-0.11324637
216	0x3c0c78bc	0.008573707
217	0xbd08c84c	-0.033394143
218	0x3d925c6a	0.07146533
219	0xbdc42fc6	-0.095794246
220	0x3d7303fe	0.05932998
221	0x3db1eac8	0.08687359
222	0x3d0a79ef	0.03380769
223	0x3b6bd5f9	0.0035985692
224	0x3dabf9e6	0.08397274
225	0xbd1e96da	-0.038718082
226	0x3bb65876	0.0055647446
227	0xbd419f6b	-0.047271173
228	0xbc92c242	-0.017914895
229	0x3c7548eb	0.014970998
230	0x3bd77f77	0.0065764743
231	0xbd0a7972	-0.033807226
232	0xbdb73024	-0.08944729
233	0x3d0728de	0.03299796
234	0x3c6f5277	0.0146070635
235	0x3c9df02d	0.019279564
236	0x3d78b386	0.060718082
237	0x3da382a7	0.07983904
238	0xbdb6e5d1	-0.08930553
239	0xbc8b27ed	-0.016986812
240	0xbd276d15	-0.040875513
241	0xbdb45fe3	-0.088073514
242	0xbd74d32e	-0.05977171
243	0x3dadc6a2	0.08485152
244	0x3d6f9e2b	0.05850045
245	0x3d41448e	0.04718452
246	0x3d828951	0.06373847
247	0xbda876ac	-0.0822576
248	0x3cbfd19b	0.023415377
249	0x3d874cef	0.06606471
250	0xbd36503d	-0.044510115
251	0x3d93c5a1	0.07215429
252	0x3d17aa6d	0.037027765
253	0x3d8a353e	0.067484364
254	0xbd1278f8	-0.035759896
255	0x3cdb6e2f	0.026785938

fc2.bias f4 [64]
0	0x3bfa211b	0.007633341
1	0x3d4664c4	0.04843594
2	0x3cc989fb	0.024601927
3	0xbce467d9	-0.02788155
4	0xbd28e7a1	-0.041236524
5	0x3d9bdd05	0.076105155
6	0xbdc3d173	-0.09561434
7	0x3c8c067b	0.017092934
8	0x3dc9f42f	0.098610274
9	0xbc974110	-0.018463641
10	0xbcb749b9	-0.02237402
11	0x3c402cd9	0.0117294425
12	0x3d54461b	0.05182467
13	0xbd9c0eb2	-0.076199904
14	0x3d88f600	0.06687546
15	0x3d3f6160	0.046723723
16	0xbd5aac5f	-0.053387042
17	0x3cddf9c5	0.027096638
18	0xbd76e8ac	-0.060280487
19	0x3d417c39	0.04723761
20	0x3d0c53cb	0.0342596
21	0xbd069225	-0.032854218
22	0xbb334adb	-0.002735785
23	0xbd28d625	-0.04121985
24	0x3d75feeb	0.06005756
25	0xbcf5706b	-0.029960832
26	0xbd9365d3	-0.07197156
27	0x3dc59ed0	0.09649432
28	0x3d8b8833	0.06813087
29	0x3da30bc3	0.07961228
30	0x3d9808cf	0.07423555
31	0xbde331ea	-0.11093505
32	0xba9ddcd5	-0.0012043962
33	0xbd5e3882	-0.05425311
34	0x3dd008e1	0.101579435
35	0xbd7ef071	-0.06224102
36	0xbc33acc9	-0.010966488
37	0x3d8e9e15	0.069637455
38	0x3d7e9694	0.06215532
39	0xbda704b6	-0.081551954
40	0xbdc08023	-0.0939944
41	0xbd6f5ce1	-0.058438186
42	0x3d0a0d35	0.033704
43	0x3d9cf60e	0.07664119
44	0x3c14d089	0.009082922
45	0x3d5bbcd2	0.05364687
46	0x3d4704ee	0.048588686
47	0xbdbdccde	-0.09267591
48	0xbd1514ff	-0.036396977
49	0x3d775ff5	0.060394246
50	0x3daee8df	0.085405104
51	0x3c867b54	0.01641623
52	0x3dab629c	0.083684176
53	0x3d94405f	0.0723884
54	0x3d093ffa	0.03350828
55	0xbcad1979	-0.02113031
56	0xbcf1505f	-0.02945727
57	0xbde23d7a	-0.11046882
58	0xbda4705d	-0.08029244
59	0x3d8bcdbb	0.06826349
60	0x3db40f8d	0.087920286
61	0xbcd5202f	-0.026016323
62	0x3dafb6ce	0.08579789
63	0xbcb2e086	-0.021835577

bn2.weight f4 [64]
0	0x3fa122f2	1.258879
1	0x3f91e961	1.1399347
2	0x3f9ae340	1.2100601
3	0x3fa71721	1.3053933
4	0x3fa9117e	1.3208463
5	0x3f9967d4	1.1984811
6	0x3fb1836a	1.3868229
7	0x3fd7324d	1.6812226
8	0x3fb222b7	1.3916844
9	0x3f9cf1e6	1.2261322
10	0x3f9cf493	1.2262138
11	0x3fa9d9ed	1.3269631
12	0x3ff698de	1.9265401
13	0x3f950d52	1.164469
14	0x3f8eb5d0	1.1149235
15	0x3f8fb465	1.1226927
16	0x3f9cbbf8	1.2244864
17	0x3fa6f543	1.3043598
18	0x3fb09e39	1.3798286
19	0x3f9fcedf	1.2485007
20	0x3f923511	1.1422445
21	0x3fad1cb6	1.3524387
22	0x3fd9fa6c	1.7029548
23	0x3fa69523	1.3014263
24	0x3f9ab282	1.2085726
25	0x3fe9ff9d	1.8281132
26	0x3fa54849	1.2912685
27	0x3fa08bd3	1.2542671
28	0x3fa2006c	1.2656379
29	0x3f9a0bed	1.203489
30	0x3f9f9c7d	1.2469631
31	0x3fde88b6	1.7385471
32	0x3fb6bbf5	1.427611
33	0x3fd4a0c2	1.6611559
34	0x3f97a0c2	1.1845934
35	0x3f9ce934	1.2258668
36	0x3f96fb05	1.1795355
37	0x3fd2fd72	1.6483595
38	0x3f931ba6	1.1492813
39	0x3f95ff8a	1.1718609
40	0x3f98fa2b	1.1951345
41	0x3fb308e1	1.3987085
42	0x3f9485d2	1.1603339
43	0x3fa093e0	1.2545128
44	0x3fa33e68	1.275342
45	0x3fa499d7	1.2859448
46	0x3f990b60	1.1956596
47	0x3fbd49a7	1.4788102
48	0x3fc44b37	1.5335454
49	0x3fc779f7	1.5584096
50	0x3fcea4fa	1.6144097
51	0x3fd7bf35	1.6855227
52	0x3fac9c6a	1.3485234
53	0x3fa461b6	1.2842319
54	0x3f9e0661	1.2345697
55	0x3fdc5aa1	1.7215158
56	0x3f8f1a58	1.1179914
57	0x3f97c067	1.1855592
58	0x3fc19bd7	1.5125684
59	0x3f7df757	0.99205536
60	0x3fc21a7b	1.5164331
61	0x3fca12cc	1.5786986
62	0x3fb0373e	1.3766859
63	0x3f986498	1.1905699

bn2.bias f4 [64]
0	0xbe1f8741	-0.15578939
1	0xbe2e78d0	-0.17038274
2	0xbe471da2	-0.19444898
3	0xbdc6044b	-0.096687876
4	0xbe3623d4	-0.17787105
5	0x3e672d95	0.22575982
6	0xbe2ae159	-0.16687526
7	0xbe2be1e4	-0.16785389
8	0x3e796411	0.24354579
9	0x3dae9a35	0.085255064
10	0xbe293595	-0.16524346
11	0x3e1000f6	0.14062867
12	0x3dfb281e	0.12263511
13	0xbdf03eca	-0.11730726
14	0xbd829961	-0.06376911
15	0x3dd5decb	0.10442885
16	0x3e0d193c	0.13779157
17	0x3e3cd752	0.18441513
18	0xbe1a8549	-0.15089907
19	0x3e4f2144	0.20227534
20	0xbe35c2aa	-0.1775004
21	0x3e245bf4	0.16050702
22	0xbe115e48	-0.14196122
23	0x3e3792d1	0.179271
24	0x3e0e0e17	0.13872562
25	0xbe1a2b24	-0.1505552
26	0xbe08e066	-0.13366851
27	0x3dfc84dc	0.123300284
28	0x3d929c80	0.07158756
29	0x3d714ae7	0.058909323
30	0x3dedaeff	0.116056435
31	0xbe0e9974	-0.13925725
32	0xbe62efcd	-0.22161789
33	0x3c9a1c44	0.018812306
34	0xbdf7c48c	-0.12098035
35	0xbe36458b	-0.17799966
36	0xbd86bddc	-0.065791816
37	0x3e03f084	0.12884718
38	0xbd97fa82	-0.074208274
39	0x3d4a2259	0.049349163
40	0xbe41f8e1	-0.18942596
41	0x3de7129f	0.112828486
42	0x3e5c7e58	0.21532571
43	0x3def438c	0.116828054
44	0xbe203e2d	-0.15648718
45	0x3e3866a8	0.1800791
46	0x3dcf1b74	0.10112658
47	0xbe0f2b98	-0.13981473
48	0x3d8ad548	0.067789614
49	0x3dc2ed99	0.095179744
50	0xbdc110ba	-0.094270185
51	0x3e11904b	0.142152
52	0xbe38f5e5	-0.18062551
53	0x3d09b525	0.03362002
54	0x3e09ad72	0.1344507
55	0xbe4ef090	-0.20208955
56	0x3dfa6e5f	0.12228083
57	0xbe5c61d8	-0.215217
58	0x3df46071	0.11932457
59	0xbd9f22f2	-0.07770337
60	0xbd83098d	-0.06398306
61	0xbe23eb8a	-0.1600782
62	0xbe274045	-0.1633311
63	0x3e3ad998	0.18247068

fc3.weight f4 [6, 64]
0	0x3e0c6ce6	0.13713416
1	0x3e30f8d9	0.17282428
2	0x3d9a678e	0.07539283
3	0x3df5c9c4	0.12001374
4	0x3d9bdfb8	0.0761103
5	0xbe087545	-0.13325985
6	0x3e635d3c	0.22203535
7	0x3e47aeb1	0.19500233
8	0xbe8ecc93	-0.27890453
9	0xbe666198	-0.22498167
10	0x3e8b1682	0.2716561
11	0xbe115e93	-0.14196233
12	0xbe8be77e	-0.27325052
13	0x3d394c98	0.04523906
14	0x3dccf40e	0.10007487
15	0xbd74cf0d	-0.05976777
16	0xbdca44dc	-0.09876415
17	0xbe217ade	-0.15769526
18	0x3e64b58e	0.22334883
19	0xbdd86767	-0.105665974
20	0x3e464597	0.19362484
21	0xbea19814	-0.3156134
22	0x3e81c40d	0.25344887
23	0xbe25011f	-0.16113709
24	0xbde87755	-0.11350886
25	0x3e7d4bba	0.24735919
26	0x3e37acef	0.17937063
27	0xbe723d5e	-0.23656222
28	0xbe53032e	-0.20606682
29	0xbe62e8de	-0.22159144
30	0xbe18550b	-0.14876191
31	0x3e842320	0.25808048
32	0x3e30aa21	0.17252399
33	0xbe8a91e4	-0.2706443
34	0x3e0fb8ce	0.14035341
35	0x3da2d95f	0.079516165
36	0x3de2f1c0	0.110812664
37	0xbe8c613f	-0.27417943
38	0x3e6251d7	0.22101532
39	0xbe29e542	-0.16591361
40	0x3e4bbef9	0.19897069
41	0xbe2a8f24	-0.16656166
42	0xbdfdd694	-0.12394443
43	0xbe27ec52	-0.16398743
44	0x3e695baa	0.22788873
45	0xbe4e78a5	-0.2016321
46	0xbe81c88f	-0.25348327
47	0x3e0dd0ea	0.13849226
48	0xbe3fdd29	-0.1873671
49	0xbe63ef05	-0.22259147
50	0x3e6d8df3	0.2319868
51	0xbe1bdda6	-0.15221271
52	0x3e63de09	0.22252668
53	0x3e3e27b9	0.1856984
54	0xbe104250	-0.14087796
55	0x3e1a38b7	0.15060697
56	0xbdbcb3ae	-0.09213959
57	0x3e13c031	0.14428784
58	0xbe447c54	-0.19188052
59	0x3cc6428c	0.024201654
60	0x3e8aec3d	0.2713336
61	0x3d86121b	0.06546422
62	0x3dfefe45	0.12450842
63	0xbe66e6d1	-0.22548987
64	0x3e47ca0b	0.19510667
65	0x3daa63c3	0.08319809
66	0x3e7c71c9	0.2465278
67	0x3dcd6f35	0.10030977
68	0x3e099118	0.13434255
69	0xbd45d560	-0.048299193
70	0x3e807aae	0.25093597
71	0x3e5c2b42	0.21500877
72	0xbe27b0d3	-0.16376047
73	0xbe29e32a	-0.16590562
74	0x3e6a6ac9	0.22892298
75	0xbe3bb2f5	-0.18329985
76	0xbe8f8951	-0.28034452
77	0x3e48645f	0.19569539
78	0x3e009cf6	0.12559876
79	0xbd2da153	-0.04239018
80	0xbe003047	-0.12518416
81	0xbe166bc3	-0.14689545
82	0x3e435e66	0.19078979
83	0xbdaf7e3d	-0.08569
84	0x3e4a7653	0.197717
85	0xbe996088	-0.2995646
86	0x3e6742a6	0.22584018
87	0xbe5f7b42	-0.21824363
88	0xbe896c91	-0.26840642
89	0x3de0b417	0.109718494
90	0x3e6547e0	0.223907
91	0xbde7cc23	-0.11318233
92	0xbe882c86	-0.2659647
93	0xbe1240fd	-0.14282604
94	0xbe06c2cc	-0.13160247
95	0x3de5e1e0	0.11224723
96	0x3e41c04c	0.18921012
97	0xbe7a58ea	-0.2444798
98	0x3e055eca	0.1302444
99	0x3e1b71b2	0.1518009
100	0x3e4bf281	0.19916727
101	0xbe8e5d05	-0.27805343
102	0x3e48f084	0.19623
103	0xbe1a9ed6	-0.15099654
104	0x3e39efc1	0.18157865
105	0xbe1304be	-0.14357278
106	0xbe42f0a6	-0.19037113
107	0xbe2fa507	-0.17152797
108	0x3e35fa27	0.17771207
109	0xbdeb0259	-0.11475057
110	0xbe6e4aeb	-0.23270766
111	0x3e51bf08	0.20483029
112	0xbe43e374	-0.19129735
113	0xbe75987b	-0.23983948
114	0x3e938c10	0.28817797
115	0xbe56f34d	-0.2099125
116	0x3e3dfaa6	0.18552646
117	0x3e630e1a	0.22173348
118	0xbe3f790e	-0.18698522
119	0x3e60d1f5	0.21955092
120	0xbd94098c	-0.072283834
121	0x3e140c1e	0.14457747
122	0xbe18d0c7	-0.14923392
123	0x3d5288e2	0.051400073
124	0x3e5e8685	0.21731003
125	0x3e8833fa	0.26602155
126	0x3e4428ad	0.19156142
127	0xbdbca01d	-0.09210227
128	0x3e4ef782	0.20211604
129	0x3e5526f2	0.20815638
130	0x3e300461	0.1718917
131	0x3e183ecf	0.1486771
132	0x3d8b65fc	0.06806561
133	0xbe099bf0	-0.13438392
134	0x3e4ddafe	0.2010307
135	0x3e44798e	0.19186994
136	0xbe78c256	-0.24292883
137	0xbe244ed6	-0.16045699
138	0x3e335723	0.17513709
139	0xbe42a327	-0.1900755
140	0xbe630ce5	-0.22172888
141	0x3df4bb62	0.11949803
142	0x3debc1c2	0.11511566
143	0xbd9a053f	-0.07520532
144	0xbe607286	-0.21918687
145	0xbe885b8f	-0.26632354
146	0x3e3d9dd3	0.18517236
147	0xbe007f63	-0.12548594
148	0x3e35af0a	0.17742553
149	0xbe5fc7ca	-0.21853557
150	0x3e2138fb	0.15744393
151	0xbe919c54	-0.2843958
152	0xbe3e023f	-0.18555544
153	0x3e739aec	0.23789567
154	0x3e2a6804	0.16641241
155	0xbe86dbda	-0.26339608
156	0xbe247337	-0.16059576
157	0xbdadafeb	-0.08480819
158	0xbe13a2c2	-0.14417556
159	0x3e8b566c	0.27214372
160	0x3e729489	0.23689474
161	0xbe85aaab	-0.26106772
162	0x3e59dd04	0.21275717
163	0x3e477200	0.19477081
164	0x3e2a9ef5	0.166622
165	0xbe0f2553	-0.13979082
166	0x3d76465b	0.06012569
167	0xbda7d63d	-0.081951596
168	0x3e78b18d	0.2428648
169	0xbe241030	-0.160218
170	0xbdccae4a	-0.099941805
171	0xbe28ebb8	-0.1649617
172	0x3dbc4c7a	0.09194274
173	0xbde22f1b	-0.11044141
174	0xbe0e4f84	-0.1389752
175	0x3e6c42d6	0.23072371
176	0xbe06c0c0	-0.13159466
177	0xbe918bbf	-0.2842693
178	0x3e8e1b98	0.27755427
179	0xbe4dec71	-0.20109726
180	0x3e2c0afd	0.16801067
181	0x3dd30870	0.10304344
182	0xbe675123	-0.22589545
183	0x3e54dc46	0.20787153
184	0xbe14fd9b	-0.14549868
185	0x3e25de5b	0.16198103
186	0xbe949380	-0.29018784
187	0x3cfad45d	0.03061884
188	0x3e6c99ec	0.23105592
189	0x3dfca516	0.12336175
190	0x3e77fcb6	0.24217495
191	0xbe5f6666	-0.21816406
192	0x3e002d97	0.12517391
193	0x3e42ab68	0.19010699
194	0x3e7fc525	0.24977548
195	0x3e3fbeca	0.18725124
196	0x3e1a3131	0.15057828
197	0xbe396112	-0.18103436
198	0x3e3b8857	0.18313728
199	0x3e1ff36e	0.15620205
200	0xbe7a1583	-0.24422269
201	0xbe259983	-0.16171841
202	0x3e499392	0.196852
203	0xbe7ee70c	-0.24892825
204	0xbe524acc	-0.20536345
205	0x3e040121	0.12891056
206	0x3e4ad836	0.1980904
207	0xbe61cfa4	-0.22051865
208	0xbd6562d4	-0.056002453
209	0xbe47d398	-0.1951431
210	0x3e597e87	0.21239673
211	0xbe389065	-0.18023832
212	0x3d4f2e15	0.050581057
213	0xbe8918c1	-0.26776698
214	0x3e147223	0.14496665
215	0xbe329105	-0.17438133
216	0xbdac854a	-0.0842386
217	0x3e33287d	0.17495914
218	0x3e773c7e	0.2414417
219	0xbe7faa6f	-0.24967359
220	0xbe1bf881	-0.15231515
221	0xbe6299ba	-0.22128955
222	0xbe556def	-0.20842718
223	0x3e86d13d	0.2633151
224	0x3da59eb0	0.08086908
225	0xbe94cbd2	-0.29061753
226	0x3d93f7dd	0.072250105
227	0x3e165d85	0.14684112
228	0x3e1cf108	0.15326321
229	0xbdca4fb1	-0.09878481
230	0x3d555202	0.052080162
231	0xbde3f42a	-0.11130555
232	0x3dd28c08	0.10280615
233	0xbe8271a1	-0.25477317
234	0xbe16f370	-0.14741302
235	0xbe27e0a9	-0.16394295
236	0x3e5bc355	0.21461232
237	0xbdb6956c	-0.08915219
238	0xbe1daf67	-0.15398942
239	0x3e7d04d9	0.2470888
240	0xbe3ff05f	-0.18744038
241	0xbe553cb9	-0.20823945
242	0x3e9ad020	0.30236912
243	0xbe327ad3	-0.17429666
244	0x3e8ac76f	0.2710528
245	0x3de1fc59	0.110344596
246	0xbdec7b61	-0.1154697
247	0x3e695d6b	0.22789542
248	0xbd77768f	-0.0604158
249	0x3da316be	0.07963322
250	0xbe9287a1	-0.28619102
251	0x3d23b2f3	0.03996558
252	0x3e26b316	0.16279253
253	0x3e88376f	0.26604792
254	0x3dfe5bff	0.124198906
255	0xbe330ffb	-0.17486565

fc3.bias f4 [6]
0	0xbe36498a	-0.1780149
1	0xbe14da1d	-0.14536329
2	0xbdc5e706	-0.09663205
3	0xbe23d60c	-0.15999621
4	0xbe6baad0	-0.23014379
5	0xbe2ce866	-0.16885528
